best.pt (torch, 192882 bytes, 164 tensors)

layers.0.mixer.A_log f4 [24, 16]
000000 f2 88 eb bd 2e 3f 3c 3f 1e 85 76 3f b6 e3 9e 3f
       -0.115007296 0.73533905 0.9629687 1.2413242
000010 ae df c7 3f 42 b1 d6 3f d5 59 03 40 0b 00 06 40
       1.5615137 1.6772845 2.052358 2.0937526
000020 27 95 10 40 e2 8b 0e 40 ef 0a 11 40 7c 1f 1a 40
       2.2591035 2.2272878 2.2662923 2.4081717
000030 50 a9 1d 40 a1 8c 23 40 da 71 25 40 a9 91 2b 40
       2.463459 2.5554583 2.585074 2.6807654
000040 e6 69 8c bd 06 9b 12 3f 83 a2 85 3f da 68 a9 3f
       -0.06856136 0.57267797 1.044022 1.3235123
000050 c6 e6 c0 3f ba 45 d6 3f bd 78 e3 3f ef b4 fe 3f
       1.5070426 1.6740029 1.7771221 1.9898967
000060 16 61 f8 3f a6 bc 0d 40 34 ae 15 40 33 a7 18 40
       1.9404628 2.2146392 2.3387575 2.385205
000070 33 09 18 40 ca 16 1e 40 1c 16 28 40 f4 73 2c 40
       2.3755615 2.470141 2.6263494 2.6945772
000080 d7 c7 20 be 8c 72 22 3f 35 05 72 3f fb f4 9b 3f
       -0.15701233 0.63456035 0.94539195 1.2184137
000090 56 b2 c1 3f a2 f7 d1 3f ed 33 fb 3f bb ab fc 3f
       1.5132549 1.6403697 1.9625221 1.9739908
0000a0 f6 e5 07 40 a3 b8 08 40 4f 17 0f 40 47 8e 11 40
       2.1234107 2.1362693 2.2357976 2.274309
0000b0 35 5a 20 40 be ba 21 40 1a f2 1f 40 45 71 27 40
       2.5055058 2.5270228 2.4991517 2.6162884
0000c0 f5 13 9b bd dc 24 39 3f dc a8 81 3f 5a a4 a4 3f
       -0.07572166 0.7232187 1.0129657 1.2862656
0000d0 49 b5 c6 3f 84 ff d7 3f de 14 00 40 9d f9 03 40
       1.5524074 1.6874852 2.0012736 2.0621102
0000e0 6d a6 0b 40 4b 3c 11 40 11 40 13 40 84 71 1a 40
       2.1820328 2.269305 2.3007853 2.4131784
0000f0 e4 e0 1f 40 2f 6d 22 40 1d 06 28 40 c2 df 2c 40
       2.4981012 2.537914 2.6253731 2.701157
000100 82 66 32 be dd 34 31 3f 21 58 6d 3f 5f 65 9b 3f
       -0.17421916 0.6922129 0.927126 1.2140311
000110 eb ea bc 3f ac d5 ce 3f a0 c4 fe 3f 5b 7e fd 3f
       1.4759191 1.6158957 1.9903755 1.9804186
000120 78 11 09 40 be 73 0b 40 22 18 0f 40 d3 a5 15 40
       2.1416912 2.1789393 2.235848 2.338246
000130 88 e2 21 40 2d 40 24 40 e1 ce 22 40 3a c8 27 40
       2.5294514 2.566417 2.543877 2.6215959
000140 55 ea 10 be 0d 01 26 3f 93 6d 75 3f b2 57 9b 3f
       -0.1415189 0.64845353 0.9587032 1.2136137
000150 e4 1b c2 3f 00 db d4 3f 14 1a fd 3f 8b db fd 3f
       1.5164762 1.6629333 1.9773583 1.9832624
000160 46 66 0c 40 0c 1f 0d 40 c5 6b 0f 40 6b bf 10 40
       2.1937423 2.20502 2.2409527 2.2616832
000170 4c f6 1f 40 55 e1 1e 40 e7 c0 24 40 99 ff 28 40
       2.4994078 2.4825032 2.5742738 2.6406004
000180 19 43 12 be 60 71 25 3f f5 6a 77 3f 44 2d 9c 3f
       -0.14283408 0.6462612 0.9664758 1.2201314
000190 35 cb bf 3f 2c ec d3 3f c5 bf f0 3f 15 f6 fa 3f
       1.4983889 1.6556449 1.8808523 1.9606348
0001a0 ad 62 06 40 ea 22 0d 40 57 80 10 40 66 8a 10 40
       2.0997727 2.205256 2.2578332 2.2584472
0001b0 dd b1 1c 40 23 c5 18 40 a6 5e 25 40 05 d0 29 40
       2.448356 2.3870323 2.583902 2.6533215
0001c0 6e 76 1c 3d d4 d0 56 3f 9b 90 91 3f 8f 1f b2 3f
       0.03819888 0.83912396 1.1372255 1.3915881
0001d0 f9 99 d8 3f 1e 8f e8 3f e2 3b 09 40 22 b1 06 40
       1.6921989 1.8168676 2.14428 2.1045613
0001e0 1b 6a 14 40 c6 8f 18 40 77 70 1b 40 aa 59 20 40
       2.3189762 2.3837752 2.4287393 2.5054727
0001f0 cf ca 2d 40 ca 0a 2b 40 43 44 30 40 9b 2d 34 40
       2.7155035 2.6725335 2.7541664 2.8152835
000200 2c 05 30 be fe 1d 32 3f a7 06 73 3f 39 a5 a9 3f
       -0.17189473 0.69577014 0.94932026 1.3253547
000210 11 a6 b3 3f 86 7c db 3f e0 5c dc 3f 0c ad ff 3f
       1.4035054 1.7147377 1.7215843 1.9974685
000220 0f 37 f8 3f ef 61 0d 40 01 75 17 40 a0 26 13 40
       1.9391803 2.2091024 2.3665164 2.2992325
000230 83 eb 19 40 78 23 17 40 46 13 2c 40 b0 46 2b 40
       2.4049995 2.3615398 2.6886764 2.6761894
000240 99 39 0a bd 0a fc 21 3f d8 9b 88 3f d5 bd ad 3f
       -0.033746336 0.63275206 1.067256 1.3573557
000250 c1 c3 c5 3f b7 3b e2 3f 2e 2a fa 3f ca ee 05 40
       1.5450364 1.7674474 1.9544122 2.0926995
000260 79 83 09 40 e5 b7 10 40 0c 17 18 40 b0 34 1b 40
       2.1486495 2.261224 2.3764067 2.4250908
000270 33 af 23 40 85 33 22 40 99 09 2d 40 52 26 2e 40
       2.5575683 2.5343945 2.7037108 2.721089
000280 2a c6 2e 3c 72 74 11 3f e9 62 8f 3f bb 58 b7 3f
       0.010667363 0.56818306 1.120206 1.4323953
000290 5a 3e c8 3f fc 46 eb 3f ab de e9 3f 26 03 01 40
       1.5644028 1.8381038 1.8271078 2.0158172
0002a0 6e b9 07 40 cf ec 11 40 9b 1b 1c 40 eb e3 20 40
       2.1206927 2.2800786 2.439185 2.513911
0002b0 93 b4 25 40 80 19 2a 40 fc e1 2f 40 7d 6f 32 40
       2.5891464 2.6578064 2.748168 2.7880547
0002c0 35 dd 89 bd 91 f1 11 3f ee a0 8a 3f 74 0a ad 3f
       -0.06731645 0.57009226 1.0830362 1.3518815
0002d0 07 9b bf 3f b8 d5 e2 3f 6d 7e ea 3f 0b 96 fe 3f
       1.4969186 1.7721472 1.8319832 1.988954
0002e0 c4 24 05 40 29 bc 0a 40 68 c8 17 40 55 5d 16 40
       2.080369 2.1677344 2.3716068 2.3494465
0002f0 24 82 1d 40 93 c6 1e 40 c3 23 2a 40 1a 13 2b 40
       2.4610682 2.48087 2.6584327 2.6730409
000300 ea a2 9c 3c 73 ca 03 3f 3d ac 9d 3f 48 6a be 3f
       0.019120652 0.5148079 1.2318188 1.4876184
000310 51 ea ce 3f dc be f5 3f e4 a8 f3 3f ec 9c 08 40
       1.6165258 1.9198871 1.9035916 2.1345778
000320 4c bf 0e 40 03 18 08 40 cf 87 1e 40 71 0c 23 40
       2.2304258 2.1264656 2.477039 2.5476344
000330 fe f0 1e 40 5e c1 23 40 f8 cb 2d 40 ce 6b 2d 40
       2.483459 2.5586772 2.7155743 2.7097049
000340 0b 5b 0e be ee 85 37 3f 05 d2 74 3f 10 ad 9d 3f
       -0.13901918 0.71688735 0.95632964 1.231844
000350 14 42 c1 3f 81 4e d3 3f 2d 3e 02 40 c9 74 ff 3f
       1.509829 1.6508332 2.035045 1.9957515
000360 47 e8 0d 40 fb 4a 0c 40 b5 83 0f 40 cb 80 14 40
       2.217302 2.1920764 2.2424138 2.320361
000370 53 1c 1f 40 c0 1c 20 40 46 63 23 40 69 1f 29 40
       2.4861038 2.5017548 2.5529342 2.6425421
000380 77 8d 96 3e e2 0a 58 3f 45 cf ae 3f 47 f2 d4 3f
       0.29404804 0.84391606 1.3657004 1.6636437
000390 54 ac eb 3f b1 0d 06 40 ef dc 0c 40 d5 47 10 40
       1.8411965 2.0945857 2.2009847 2.2543843
0003a0 36 5b 1e 40 68 3e 21 40 71 ed 2c 40 17 37 31 40
       2.474317 2.519434 2.7019923 2.7689874
0003b0 14 87 35 40 b5 42 3a 40 de 50 3f 40 37 0a 3e 40
       2.8363695 2.9103215 2.9893107 2.9693735
0003c0 fb 45 2f bd 37 8b 5b 3f 87 69 87 3f c7 6e ab 3f
       -0.042791348 0.857593 1.0579079 1.3393182
0003d0 7b be cc 3f cc 2c df 3f e7 34 04 40 9f 16 09 40
       1.599563 1.7435546 2.065729 2.1420057
0003e0 fa 8d 11 40 3e 84 15 40 b5 cf 16 40 f8 16 1f 40
       2.2742906 2.3361964 2.3564274 2.485777
0003f0 ee ac 24 40 1c 5d 26 40 23 b9 2d 40 10 b3 32 40
       2.5730548 2.599433 2.7144248 2.792179

layers.0.mixer.D f4 [24]
000000 ab 5d 82 3f 4f 2d 76 3f 5b 2e 95 3f 6a 43 92 3f
       1.0184835 0.96162885 1.1654772 1.1426823
000010 74 20 a0 3f f5 1c a5 3f 0b d0 95 3f 1f 07 98 3f
       1.2509904 1.2899462 1.1704115 1.1877173
000020 69 43 95 3f 94 39 96 3f 9c 3d 47 3f 60 31 8a 3f
       1.1661197 1.1736321 0.77828383 1.0796318
000030 f3 58 4f 3f 4b c3 94 3f 45 33 93 3f d4 68 8d 3f
       0.809951 1.1622099 1.1500021 1.1047616
000040 96 21 95 3f 70 c4 7a 3f 96 2c a0 3f 89 f5 a1 3f
       1.1650875 0.9795599 1.2513607 1.2653056
000050 f0 19 3a 3f 41 93 6a 3f a4 89 8e 3f 26 48 99 3f
       0.7269583 0.9163094 1.1135755 1.1975143

layers.0.mixer.in_proj.weight f4 [48, 12]
000000 13 7f 63 3e 97 db 25 be 80 6a 08 3e 43 c7 e5 bc
       0.22216444 -0.16197048 0.13321877 -0.028049117
000010 c0 49 8e 3c 69 dc 6a 3e 82 df a7 3e 0d 31 83 3e
       0.017369151 0.22935642 0.3278771 0.2562336
000020 86 f4 ef 3d 0d 84 fe bd bf f6 c3 3d fc e6 ba bd
       0.11716561 -0.124275304 0.095685475 -0.09126088
000030 ff c2 81 bc c3 76 88 3e aa 99 41 bd ee 84 84 bd
       -0.015840052 0.26653108 -0.047265686 -0.06470667
000040 8a 67 9f bd 73 16 4a 3e f6 71 2d 3e 89 ce 85 bd
       -0.077834204 0.19735126 0.16938004 -0.06533534
000050 65 4f 9e bd 6a 63 28 3e 24 3f 0e be b6 aa 1a be
       -0.07729987 0.16444173 -0.13891274 -0.15104184
000060 80 df 8b 3e b1 1f c3 3c 13 f2 aa be 40 ca 8f be
       0.27318954 0.023818823 -0.33387813 -0.28083992
000070 64 62 a4 bd ee 70 7c 3d 33 84 e6 3d 36 89 92 be
       -0.08026579 0.061631136 0.11255684 -0.2862031
000080 bf 3d d4 3e 1f 8a c4 3e 67 1e 84 3d 49 86 80 3d
       0.4145336 0.38386628 0.06451111 0.06275613
000090 de c1 0e 3e 7e d0 58 3e bc e1 9d 3d 2c df bd 3e
       0.13941142 0.21173283 0.07709071 0.3708433
0000a0 1a e4 3f be f4 73 15 be 46 18 7e be 7b 4c 0a 3d
       -0.18739358 -0.14595014 -0.24813947 0.033764344
0000b0 84 d4 c5 3c 7b f0 a7 be f6 7f 29 3c f8 6c c2 3d
       0.024149187 -0.3280066 0.01034545 0.094934404
0000c0 ea 33 a3 bd c5 e8 82 be 2a f6 3c be 7a 19 ee bd
       -0.07968886 -0.25568214 -0.18453279 -0.11625953
0000d0 02 b9 91 be cc 67 21 be 58 ae 44 3d 8d 23 c5 be
       -0.28461462 -0.15762252 0.04801783 -0.38503686
0000e0 db c7 62 be 61 37 84 be 4d e2 14 3d 38 7a 80 be
       -0.22146551 -0.258235 0.03634863 -0.25093246
0000f0 f5 da c0 3e 86 57 02 3e c5 05 52 be 2f d3 6e be
       0.3766705 0.127287 -0.20510013 -0.23322748
000100 c4 99 9a 3e ec 46 cb 3d f0 ed e7 bc 88 b1 8b 3e
       0.3019544 0.09925637 -0.0283117 0.27283883
000110 dc f0 40 3e e7 ed 9a 3e 55 e9 d2 3e 7d 99 02 3d
       0.1884188 0.3025963 0.41193643 0.03188466
000120 02 91 45 be bb 95 0e bd 0d ed 26 3d c0 57 2d be
       -0.19293597 -0.034810763 0.040753413 -0.16928005
000130 eb 91 9b be a1 22 32 be d7 06 c0 be b2 f5 f8 bd
       -0.30384764 -0.17396022 -0.37505218 -0.12156238
000140 40 c8 b6 be b1 5b b1 bd 86 c0 c9 bd 77 d4 26 bd
       -0.35699654 -0.08660067 -0.09851174 -0.040729966
000150 78 20 22 bd ee 9e 91 bd 5f 00 bd be 62 d1 80 3c
       -0.039581746 -0.071103916 -0.36914346 0.015724842
000160 59 97 b3 3d 71 3a 49 bd b6 1e af 3d f5 1a 70 be
       0.08769102 -0.049128 0.085507795 -0.23447783
000170 c0 bf 26 3d 14 c4 09 3e f0 c5 50 be 16 16 fa 3d
       0.04071021 0.13453704 -0.20388007 0.12211244
000180 a6 51 d5 3e 57 23 59 3d 76 d1 41 3e 39 9b ab 3e
       0.41663855 0.05301222 0.1892756 0.33516863
000190 af 4f 90 3e 3e d9 cb 3e 33 0e b4 bd 67 32 71 3d
       0.28185794 0.3981418 -0.08791771 0.058885958
0001a0 8b c5 60 3e 89 3a f2 3e 02 d6 a8 3e 6e 71 e1 3e
       0.21950357 0.47310284 0.32975775 0.44031852
0001b0 02 a5 25 3d f1 98 32 be 57 90 c6 3e 90 40 74 3e
       0.040440567 -0.17441155 0.38781998 0.23852754
0001c0 39 8f a8 be b4 7e 49 be e9 97 6a 3e 75 ac 64 3d
       -0.3292177 -0.1967724 0.22909512 0.05582853
0001d0 4d a1 b5 3d e1 f8 11 3d d5 03 31 3e 89 5f 5c 3e
       0.08868656 0.03563774 0.17286618 0.21520819
0001e0 99 35 6d be e7 c7 1c be cd fe 41 be fc 01 78 bd
       -0.23164977 -0.15310632 -0.18944855 -0.060548767
0001f0 7d ee 4d be 84 53 35 3e 1f 91 13 3e 00 45 30 be
       -0.20110507 0.1770764 0.14410828 -0.17213821
000200 ec 37 c6 3c a4 e4 1b 3e 2a ec ba 3d df fd 27 3d
       0.024196588 0.15223938 0.09127076 0.041013595
000210 13 04 21 be 0a 86 8d 3e 2d b9 85 3d 90 00 6a be
       -0.1572421 0.27641326 0.0652946 -0.22851777
000220 95 7b 6c be 6b 40 95 3e 27 42 d1 3d a3 1b 37 3e
       -0.23094018 0.2915071 0.10217696 0.17881636
000230 92 4b 12 be 13 84 ec bc 49 28 01 3e 3c de f7 bd
       -0.1428664 -0.028871572 0.12613024 -0.12102935
000240 08 0a fb bd 1b ec 2f 3e cf 7f 2e 3c 03 9a 22 3d
       -0.12257773 0.17179911 0.010650589 0.03969766
000250 9a 0d 25 be 6d b6 79 3e b3 9c 65 3c 2a cd 31 3e
       -0.1611847 0.24385996 0.014014411 0.1736342
000260 83 b5 f7 3d af 25 91 3e 21 bc 58 3e de eb 27 be
       0.120951675 0.28349063 0.21165515 -0.1639857
000270 bd 7f ad 3e 8a 1f 23 3e 09 35 95 3e 5d 4d 96 bd
       0.3388652 0.1593 0.29142025 -0.073389746
000280 4e 83 9b 3e 11 82 8a 3e b9 d5 52 bd 7d e7 14 3e
       0.30373615 0.27052358 -0.051473353 0.14541431
000290 e8 08 c2 3e 5c fb 86 3d 87 71 b8 3e 34 b5 75 3d
       0.3789742 0.06590912 0.36024114 0.059987262
0002a0 f9 52 2c be 2e 96 5a 3e 3f 46 5d 3e db e1 8f 3e
       -0.16828527 0.21346352 0.21608828 0.28102002
0002b0 7a d2 4d 3e 23 3d 74 be 29 b8 91 3e 80 32 8b 3e
       0.20099822 -0.23851447 0.28460816 0.27186966
0002c0 4d 1e 76 3e 09 66 d2 bd e8 c4 34 3e 8d 3b f6 3c
       0.24034996 -0.10273368 0.17653239 0.030057693
0002d0 9b 63 5f 3e 59 24 75 be 0e 1c 20 be 48 b3 0b 3e
       0.2181534 -0.23939647 -0.15635702 0.13642609
0002e0 ec f1 76 3e 79 f3 d5 3d 83 d7 f3 bd 26 3d 50 be
       0.24115723 0.10446829 -0.1190634 -0.20335826
0002f0 40 d2 2b ba 10 9e c8 3d 60 a8 62 be d6 4a 5f 3d
       -0.0006554462 0.09795773 -0.22134542 0.05451473
000300 08 e1 b5 be fa 77 48 be 16 00 b1 bc 73 4b 1d bd
       -0.35523248 -0.19577017 -0.021606486 -0.038402032
000310 ed 9c b9 3d d8 e8 19 3e ad ed 9e 3d a2 cb a7 bd
       0.09063134 0.15030229 0.07760177 -0.08193137
000320 70 66 3d 3e d9 2c 89 be 0e 37 a4 3d bf e9 aa be
       0.18496108 -0.2679203 0.08018313 -0.3338146
000330 a1 a5 49 be 10 1e 1a be d2 10 20 3d 5b f6 fd bd
       -0.19692089 -0.1505053 0.03907854 -0.12400504
000340 62 51 3e be 53 01 0e bd 98 dc b9 be b7 5d 15 3e
       -0.18585733 -0.03466923 -0.36301112 0.1458653
000350 4b 04 62 be 63 38 83 be e9 c6 88 bc e8 81 ec bb
       -0.2207195 -0.25628957 -0.01669641 -0.0072176345
000360 c4 81 e7 bd 94 e5 18 3e 49 98 31 be 13 81 ad 3d
       -0.11304048 0.14931327 -0.17343248 0.084718846
000370 db fd db 3e 26 ea d0 bc e7 c1 f1 3e 60 bc a8 bd
       0.42967114 -0.025502276 0.47218248 -0.08239055
000380 c8 6c b8 3e fd 7d 5e bd 46 f8 0d 3e 9a 62 c6 3e
       0.36020494 -0.05431937 0.1386424 0.38747102
000390 d4 ee ce 3e d4 60 5d 3e 6f 8e 07 3d 5d cf 56 be
       0.40416586 0.21618968 0.03309482 -0.2097754
0003a0 2b 6f ea bd c4 89 cd bd a2 3a 1a 3e 57 3d b9 3c
       -0.11446985 -0.10036042 0.15061429 0.022612257
0003b0 79 11 a5 3d 87 17 19 3e dd 23 57 3e 61 cc 8d 3e
       0.08059973 0.14950381 0.21009775 0.2769499
0003c0 4e 74 e0 bd dc 39 d9 3d 1e ee 25 3e 86 5d a3 3d
       -0.10959683 0.10606739 0.16204116 0.079768226
0003d0 46 1c 90 be 93 17 05 be 3e 53 6c be dd a6 5a be
       -0.2814657 -0.12997274 -0.2307863 -0.21352716
0003e0 df 31 4f 3d f9 d4 cf 3d 38 57 af be 2e 41 5d be
       0.05058467 0.10148043 -0.3424623 -0.21606895
0003f0 2f f2 82 bd f4 98 ab 3b fa 7d c0 3d 5a f0 81 bd
       -0.06393849 0.0052367393 0.09399028 -0.063446715

layers.0.mixer.conv1d.weight f4 [24, 1, 4]
000000 f4 b7 60 3e a8 d5 b2 3d 2f bb 27 3e fc 29 ac be
       0.21945173 0.08732158 0.16379999 -0.33625782
000010 d3 ff dd 3b e0 eb ed be f4 b5 4c 3e 56 30 e8 3e
       0.0067748814 -0.4646902 0.19991285 0.45349377
000020 c9 e6 2d bd 24 9e 4b 3e 8e 74 8f 3e 41 95 f2 3e
       -0.042456422 0.19884545 0.28018612 0.47379497
000030 04 ad 6c be 16 04 af 3e cd 05 f0 bd 58 4c 32 bd
       -0.23112875 0.34182805 -0.117198564 -0.04352984
000040 69 09 a3 3e 2e 7a 94 bd 78 55 db 3e ab c6 33 3e
       0.31843117 -0.072498664 0.42838645 0.17556255
000050 fe 88 39 bc 87 b5 74 be 79 73 0d bf c1 95 cc be
       -0.011324165 -0.23897372 -0.5525432 -0.39958003
000060 af ff 31 be 0b 78 dc bb 2b 66 e8 3e 83 89 8b 3e
       -0.17382692 -0.0067281774 0.45390448 0.2725335
000070 0f 9b e9 3e 27 02 14 be 58 f7 88 3e fc 49 70 be
       0.45626113 -0.14453946 0.26751208 -0.23465723
000080 ac cb e7 3e 9e 66 22 be ac 80 68 be 61 45 24 3f
       0.45272577 -0.15859458 -0.22705334 0.64168364
000090 5a cf 32 be 57 ec a0 bd b3 74 f3 bd 98 1c 5d 3e
       -0.17461911 -0.07857578 -0.11887493 0.21592939
0000a0 53 40 81 be 31 a0 de 3e c9 70 3e be 02 30 d8 3d
       -0.25244388 0.4348159 -0.18597712 0.10556032
0000b0 31 35 9d 3d 12 ef a1 be 44 d7 97 3e 24 6d 36 bc
       0.07676161 -0.3162771 0.29656422 -0.01113442
0000c0 ff 9b c3 3e 93 26 72 3e e2 3a af be 0b 40 9e be
       0.38204953 0.23647527 -0.34224612 -0.30908236
0000d0 63 cf 07 3e cf 60 c0 3d fe 5f c7 be 6d f7 ca be
       0.13262706 0.09393465 -0.38940424 -0.39641896
0000e0 2d 60 9c be 37 ac 8c 3e ca 38 fb be 67 65 04 3f
       -0.30542126 0.2747514 -0.49066764 0.5171723
0000f0 da 60 00 bf f9 60 18 3e 43 13 8a bd cf 3d c9 3c
       -0.50147784 0.14880742 -0.06741955 0.024565605
000100 8f 4e 92 bd d0 bf bf 3d d5 cf 05 bf 58 bd 39 3b
       -0.0714389 0.09362757 -0.5227025 0.0028341617
000110 ff fa 73 3e 0d 4d fc 3e 50 a3 1e 3e ad 6f 0e 3f
       0.23826216 0.49277535 0.15491986 0.55639154
000120 7c 12 15 bf 3f 73 e7 be a0 8d 09 be 49 66 b2 be
       -0.5823133 -0.45205113 -0.13432932 -0.34843662
000130 46 5b 31 be 1c c3 ad be 91 ac 22 3e c3 e0 10 bf
       -0.17319974 -0.3393792 0.15886141 -0.5659296
000140 dc 64 20 bd 5e 65 cb 3e fe 3a 00 be df 21 76 3e
       -0.039158687 0.39725775 -0.12522504 0.24036358
000150 7e 41 d8 3e fc 8f 3c be 9b c6 9d 3c af 98 f4 3d
       0.42237467 -0.184143 0.019259742 0.119431846
000160 32 31 c2 be df 47 cf 3e b9 fc a6 3e 57 fb 91 3e
       -0.37928158 0.4048452 0.32614687 0.2851207
000170 ad f1 a5 3e 17 4f 05 3e 07 8c 0a 3d f0 74 41 bd
       0.32410946 0.13018452 0.033824947 -0.04723066

layers.0.mixer.conv1d.bias f4 [24]
000000 7d 5c ea be 66 6e 7c be 58 f2 df 3e ba f8 11 3e
       -0.45773688 -0.24651489 0.4373958 0.14255038
000010 be db bc be 8f 5a 12 bf 5f 7e 41 bf a3 a7 12 3f
       -0.368864 -0.5716943 -0.7558345 0.57287043
000020 17 bc 7f 3d 7e 46 87 3e 8d 09 0b 3d c2 0b e2 be
       0.062435236 0.2642097 0.033944655 -0.44149595
000030 47 12 1f 3c d2 e2 b1 be 00 76 b1 3d 10 d2 90 be
       0.0097089475 -0.34743363 0.08665085 -0.28285265
000040 1c 72 98 3e c9 7e e6 be 31 71 2e bf 08 56 19 bf
       0.2977456 -0.45018604 -0.68141466 -0.598969
000050 91 88 5b 3e 14 87 08 3e 18 21 b3 3d b7 3d 8c be
       0.21438815 0.13332778 0.087465465 -0.27390835

layers.0.mixer.x_proj.weight f4 [33, 24]
000000 a4 43 e5 3c 0c c9 f0 3d 39 d0 28 be 8d 76 d9 3d
       0.027986355 0.11757097 -0.1648568 0.10618315
000010 de 51 f4 bc 42 25 3a 3d 06 2f 2a be 78 b6 72 3d
       -0.029824194 0.045445688 -0.166195 0.059256047
000020 6e 80 8a bd cd 86 cd bc 83 dc 64 3e 7b 83 27 be
       -0.06762777 -0.025088692 0.22349744 -0.1635875
000030 fd 13 64 3d 36 ad 75 3d 0f 13 e6 bc 3e 4c 43 3e
       0.055683125 0.05997964 -0.02808526 0.19072053
000040 bb 57 98 3d 10 10 59 3d 52 31 92 bd 02 ce 17 be
       0.07438608 0.052993834 -0.07138313 -0.1482468
000050 56 7d 2f 3e 5b 1e 7b 3e 13 c7 25 3e ca 68 3d 3d
       0.17137656 0.24523298 0.16189222 0.046242513
000060 0f f8 29 be c8 10 12 bd f3 ea b6 3c cf e4 14 be
       -0.16598533 -0.035660535 0.02232883 -0.14540409
000070 10 96 80 bd a6 56 a4 bd 3e 4c dc 3d eb b7 25 3e
       -0.06278622 -0.080243394 0.107567295 0.1618344
000080 c2 df 0b be 08 10 55 3d 17 c1 db bd 76 e0 42 3e
       -0.13659576 0.05201724 -0.10730188 0.19030938
000090 7a 5f 72 be 8d 41 ae bd fe 47 e7 bd fd 2a d7 bc
       -0.23669234 -0.085085966 -0.11293028 -0.026265616
0000a0 04 ef bc bd 3b a0 1e 3c da 94 46 3e aa 10 fe 3c
       -0.09225276 0.009681757 0.1939272 0.031013805
0000b0 40 5c 5a be bb 03 d9 bd f4 d7 ef bc 5f 02 51 3e
       -0.21324253 -0.10596415 -0.02927778 0.20411061
0000c0 ce 94 57 be 66 40 89 3d f9 86 81 3d b7 1b 68 3c
       -0.21052858 0.06701736 0.06324572 0.014166764
0000d0 86 c3 6f bc 90 be 2c 3e 03 29 3b be f5 06 fc bd
       -0.014634019 0.16869569 -0.18277363 -0.123060144
0000e0 ec 1e e2 3d 0d 8e 50 bd 2a 9e 6a 3e d7 d4 2d be
       0.11041054 -0.05091672 0.22911897 -0.16975723
0000f0 b9 a9 29 3e a2 be 50 3d c8 51 fa bd 4a 20 0a 3e
       0.1656865 0.05096305 -0.1222263 0.1348888
000100 bf 36 35 be 74 60 d0 3c 94 57 7c bd 04 be f9 3d
       -0.17696665 0.025436617 -0.06160696 0.12194446
000110 57 10 ce 3d 04 95 9e 3b 32 6a 7a bd 3b 9b c4 3d
       0.1006171 0.0048395414 -0.061136432 0.0959992
000120 71 7c 82 3c f3 e1 60 be c6 21 86 be 4b cf fc 3d
       0.015928479 -0.21961193 -0.26197642 0.123442255
000130 ba 9a 3d 3e 21 04 43 3c 3f 8a 01 3e bd b7 1e 3d
       0.18516055 0.01190284 0.12650393 0.038749445
000140 28 70 a2 3d 11 72 36 3d ef 50 31 3d 17 00 2e bd
       0.07931548 0.044542376 0.043290075 -0.042480554
000150 b2 a4 94 3e 78 f3 20 3e f9 0e 30 3d a2 36 a7 bc
       0.29031903 0.15717876 0.04298303 -0.020411793
000160 ef 2b bc 3d 3b 6e 0f be 4f 4b f4 bd 24 07 8d bd
       0.09188067 -0.14006893 -0.119284265 -0.068861276
000170 4c 9b 18 3e 64 61 93 bd 58 71 f2 3c 97 81 ac bd
       0.14902991 -0.0719631 0.029595062 -0.08423155
000180 21 79 10 3e 3b 5f f9 bd b2 4a 07 be 30 50 c3 bd
       0.14108707 -0.12176367 -0.13212088 -0.09536779
000190 5e b9 1b 3e 04 5d 89 3e d4 60 4b 3c fe 4b 8f bd
       0.1520743 0.26828778 0.012413222 -0.06996916
0001a0 06 0c f5 3d 4f 64 80 be 7c d8 5e be 3e 3e ac bd
       0.11965184 -0.2507653 -0.2176227 -0.08410309
0001b0 be 6b 04 3c 7c 27 ef bc 9c dd 9b bd 71 b4 c4 bd
       0.008082328 -0.029193632 -0.07610628 -0.09604729
0001c0 78 a7 33 3e 93 cf af 3d a4 01 c5 bd f9 59 e7 bc
       0.17544353 0.085845135 -0.096194535 -0.028241144
0001d0 e7 3a e2 bd c7 a8 8d bd fc 57 c7 bd 84 a6 25 3e
       -0.11046391 -0.06916957 -0.097335786 0.16176802
0001e0 81 ed 03 be 69 38 87 3c 94 d6 eb bd 17 e2 07 be
       -0.1288357 0.01650639 -0.11515537 -0.1326984
0001f0 86 49 2b 3e 40 49 55 3e e4 82 a2 3d a5 5e f1 3d
       0.16727266 0.20828724 0.07935122 0.1178563
000200 9c 87 f9 3d 7e ac 0b bb 24 42 1a be 7a ce 01 be
       0.121840686 -0.002131253 -0.15064293 -0.12676421
000210 c8 ac 69 3c 5e 49 14 be 46 15 9a bc 2e d3 0a be
       0.014262386 -0.14481112 -0.018808972 -0.13557121
000220 15 32 fa 3c b3 9d b6 bd fd 73 a5 bc 93 a7 06 3e
       0.03054146 -0.089167975 -0.02019691 0.13149862
000230 d0 b6 05 3d 5d 4c 17 3e 2e 47 d9 bd 9c 7d f1 3c
       0.032645047 0.14775224 -0.106092796 0.02947884
000240 65 75 36 bd 66 1d 9c bc c4 74 de 3d 78 ff ce bd
       -0.04454555 -0.019056987 0.10862115 -0.101073205
000250 6a d4 44 3e f5 d1 2c 3e 30 38 46 3e fa f6 a5 bd
       0.19221655 0.16876967 0.19357371 -0.08103748
000260 77 68 78 3e 25 43 0a 3e e1 80 6b 3d 6c da 39 bd
       0.242586 0.13502176 0.057495955 -0.04537432
000270 35 62 1a be 93 26 08 3e 76 ab 37 be b7 da d5 3d
       -0.15076526 0.13295965 -0.17936501 0.10442107
000280 df d1 f7 bd e8 12 8c bd 12 6b 47 3e 3a 64 28 be
       -0.121005766 -0.068395436 0.19474438 -0.16444483
000290 d3 7f b3 bd d6 47 22 be 09 e4 a9 bd 6c dc 3f 3e
       -0.08764615 -0.15847716 -0.082954474 0.18736428
0002a0 c7 bf 8d bd fb 2c 2c 3e ea 97 26 3c 63 64 76 3d
       -0.06921344 0.16814034 0.010168055 0.06015433
0002b0 26 18 a7 3c 4e 36 08 3e a8 2b 31 3e 45 a4 42 be
       0.020397257 0.13301966 0.1730181 -0.19007976
0002c0 b3 29 05 3e 40 0c 6a bd 9c b5 2d 3d 58 89 60 bd
       0.13004188 -0.05714059 0.042409524 -0.05481848
0002d0 fa 6a db bd 67 a2 30 3e 94 b5 53 bc 60 8f 53 bd
       -0.107137635 0.17249452 -0.01292171 -0.051650405
0002e0 2f d6 bd bc 22 f6 36 be 15 86 81 3d 39 c6 a5 bc
       -0.02317342 -0.1786733 0.06324402 -0.020236121
0002f0 9c de 24 3e 3a d7 1e be be 12 e2 bd 45 5a 99 bd
       0.16100544 -0.1551179 -0.11038731 -0.07487921
000300 39 e3 24 bd cf 77 87 3d 63 12 5d be 8c c9 61 bd
       -0.04025576 0.066146486 -0.21589045 -0.05512385
000310 cb d6 c1 3c c7 b7 cc bd 7e c8 90 3e 19 2e e3 bd
       0.023661992 -0.0999599 0.28277963 -0.11092777
000320 53 cc 22 3e 82 d3 f0 3d ef fd c9 3d 9c 6f 20 3d
       0.15898256 0.11759092 0.09862887 0.03916894
000330 0f 6d a2 3d a5 58 60 3d e0 03 03 3e 30 81 84 3e
       0.079309575 0.054772038 0.12794447 0.25879812
000340 e4 59 0a 3e f1 f8 4c 3e 51 e6 96 bd 60 23 f9 bd
       0.13510853 0.20016839 -0.07368148 -0.1216495
000350 38 d9 cf 3d f4 f8 69 be 25 ba 0e 3e 42 27 6e 3e
       0.10148853 -0.22848874 0.13938196 0.23257163
000360 eb 86 01 3e 8b 5e e1 bc cb b4 10 be 55 fb 3e be
       0.12649123 -0.027510902 -0.14131467 -0.18650563
000370 8e 1b d1 bd 9e f7 17 be 0a b8 15 be 80 55 cb 3d
       -0.10210334 -0.14840552 -0.14620987 0.09928417
000380 4c e2 b7 3d 7a 40 75 3d 98 d7 39 bd e5 9a 92 3d
       0.089787096 0.059875943 -0.04537162 0.0715845
000390 c9 6b 99 be 4f d1 cc bd 05 3d 6d be 70 79 fb bd
       -0.29965046 -0.1000086 -0.23167808 -0.12279022
0003a0 66 f1 c6 3c dd 0d 1d 3e 20 3d 10 be 1e 9c 61 3c
       0.02428503 0.1533732 -0.14085817 0.013770131
0003b0 15 d7 82 3b 11 54 03 3e b6 4c 06 bd 21 8a b4 bd
       0.003992925 0.12825038 -0.032788 -0.088154085
0003c0 58 2b 17 3e dd 01 25 3d 7d cc 16 be 1a 53 17 be
       0.14762628 0.04028498 -0.14726444 -0.14777794
0003d0 1e 8e d8 3d 85 ad 07 be 09 9f db bd 30 34 f0 3d
       0.10573982 -0.13249786 -0.10723693 0.11728704
0003e0 23 c5 41 be e2 28 29 3e 9a 55 15 3e 9a 5b 95 bb
       -0.18922858 0.16519502 0.14583436 -0.004558039
0003f0 8b 0f fd 3c 46 e6 1c bd 33 00 c2 3d bb 92 9b 3c
       0.0308912 -0.038305543 0.09472694 0.018990865

layers.0.mixer.dt_proj.weight f4 [24, 1]
000000 07 f0 97 be ff af 45 3f db dc 80 be 8c 8f 6d 3f
       -0.29675314 0.77221674 -0.251685 0.9279716
000010 0a 54 35 be 77 92 d6 be cc 77 4c bf fd 44 3c bf
       -0.1770784 -0.4190862 -0.79870296 -0.7354277
000020 84 49 50 3f 32 e5 a6 3e 6a 50 16 bf 95 de af be
       0.81362176 0.32596737 -0.5871645 -0.34349504
000030 6b cb 07 be 40 66 0c bc 5c b0 81 bd 59 aa cc be
       -0.13261192 -0.0085693 -0.06332466 -0.39973715
000040 f1 fd 21 3f 6b fa cf 3e 3f 4b 6c 3f 39 8c a2 3e
       0.6327811 0.4062074 0.92302316 0.31747606
000050 44 55 74 bf 0e 85 b9 3e 2f 1f 29 bf ab 4a 63 3f
       -0.95442605 0.36234325 -0.6606321 0.8878581

layers.0.mixer.dt_proj.bias f4 [24]
000000 8f d5 d1 c0 99 a9 81 c0 c1 5e ce c0 4b 2b a0 c0
       -6.557319 -4.051953 -6.4490666 -5.005285
000010 2a 50 1b c0 4c 5e 65 c0 0c 9e d6 c0 c6 62 44 c0
       -2.4267678 -3.5838804 -6.706793 -3.0685287
000020 43 eb d0 c0 8d 2d 7d c0 38 75 80 c0 04 85 49 c0
       -6.5287185 -3.9559052 -4.014309 -3.1487436
000030 36 02 ab c0 a5 f0 c4 c0 48 8b a8 c0 13 7a 4a c0
       -5.34402 -6.1543756 -5.267002 -3.1637008
000040 b7 ba 38 c0 8a 3e 1e c0 46 49 c4 c0 bd 26 3d c0
       -2.8863962 -2.472567 -6.1339445 -2.9554894
000050 5f 05 a0 c0 8c 5d 4c c0 0a f0 b8 c0 52 41 30 c0
       -5.0006557 -3.1932096 -5.7793016 -2.7539868

layers.0.mixer.out_proj.weight f4 [12, 24]
000000 c0 a3 9f 3e f7 03 10 be 72 7e d4 be b8 26 8a 3e
       0.3117962 -0.14064012 -0.4150272 0.26982665
000010 26 b2 b6 be f3 1e f1 be a4 56 8a 3e ee 7a 95 be
       -0.3568279 -0.47093925 0.27019227 -0.2919535
000020 07 66 e0 be 25 a0 c9 be ed d0 8c be 7a 51 b7 be
       -0.4382784 -0.39379993 -0.27503148 -0.3580435
000030 72 51 88 3c dc 97 e8 3e ef 37 c0 3e 4c 46 aa 3e
       0.016640399 0.4542836 0.37542674 0.33256757
000040 58 ab 20 be 87 e8 ae 3e 0d 58 0c bf d3 11 b8 3e
       -0.15690362 0.3416178 -0.54821855 0.359511
000050 59 22 68 be a3 f2 a7 bd 19 87 c7 be 1a 39 c0 be
       -0.22669353 -0.08200576 -0.3897026 -0.37543565
000060 d2 cf 17 3e 59 3b 2d be c3 8a e0 be 13 de ac 3e
       0.14825371 -0.1691717 -0.43855867 0.3376318
000070 54 bc aa bd 4b 58 a0 be 90 19 82 3e 96 37 6a bd
       -0.08336702 -0.31317362 0.25410128 -0.057181917
000080 ce b1 aa be 1d ac 6a 3d 9d fb b5 bd 2c d3 5d bd
       -0.3333878 0.057293046 -0.08885882 -0.054156467
000090 06 36 92 bd df 4e 55 3e c0 c2 46 3e 6e 3b 39 3e
       -0.071392104 0.20830868 0.19410229 0.18089077
0000a0 84 11 8f be d4 48 72 3e 12 93 5d be b5 60 b7 3e
       -0.2794305 0.23660594 -0.21638134 0.3581597
0000b0 fc 8e 9e bd 9c 2e 3d be b6 ff a1 be dc d9 75 be
       -0.07742116 -0.18474811 -0.31640404 -0.24008888
0000c0 7e 9d 66 be 62 81 e4 3d 07 84 97 3e c9 8c 8d be
       -0.22521016 0.1115749 0.29592916 -0.27646473
0000d0 96 86 2a 3e 51 84 e7 bc 23 b2 78 be 85 f7 62 3e
       0.16652903 -0.028261336 -0.24286704 0.22164734
0000e0 3c d5 52 3e f1 da 85 3e aa 7e c4 bc 47 1a 2b 3c
       0.20589155 0.26143602 -0.02398618 0.010443277
0000f0 3b 53 df 3d 10 a5 9a be 00 6b 40 be 38 3b 1a be
       0.10904547 -0.30204058 -0.18790817 -0.15061653
000100 67 33 63 3e 2a 51 17 be f3 06 57 3e e9 17 48 be
       0.22187577 -0.14777055 0.20998745 -0.19540371
000110 8a eb 8f bb ce 95 c8 3d 65 69 2a 3e 49 b5 9e 3e
       -0.004392092 0.09794198 0.16641767 0.30997685
000120 3d 5c 96 be 6a b7 19 3e 07 63 48 3e 06 e1 9a be
       -0.29367247 0.15011373 0.19569026 -0.30249804
000130 ac 42 87 3e 7a a7 c9 3e c8 3f d7 be 9a 43 b4 3e
       0.26418054 0.39385587 -0.4204085 0.35207826
000140 20 7b bf 3e 36 da b8 3e 2d e4 3a 3d 9f 24 c9 3e
       0.37398624 0.36103982 0.04562776 0.39285752
000150 71 8d 1e be 39 a7 b6 be 63 d5 93 be c9 b0 08 be
       -0.15483643 -0.35674456 -0.2887374 -0.13348688
000160 e3 47 15 3e 75 48 8d be 51 41 94 3e a1 5d 66 be
       0.14578204 -0.27594343 0.28956082 -0.22496654
000170 63 01 c0 bd 5d ff 32 3e 1b 28 33 3e a9 0c 3e 3e
       -0.093752645 0.17480226 0.17495768 0.18559517
000180 77 2b c2 3d da 8d 8c bd d1 02 58 be 3f b7 3b 3e
       0.094809465 -0.068629935 -0.21094824 0.18331622
000190 3e 0e 88 be 43 76 7b bd 61 ca 7b 3e 88 f1 3a 3d
       -0.26573366 -0.06139208 0.2458892 0.0456405
0001a0 fc d7 5e 3c 5c 5c 39 be cd d3 42 be e4 e6 8f be
       0.013601299 -0.18101639 -0.19026108 -0.28105843
0001b0 0f dd b0 be f5 40 a5 3e 08 3b 12 be 06 ed 86 3e
       -0.34543654 0.3227612 -0.14280331 0.2635271
0001c0 76 c8 33 be e7 8b e9 bc ac 8c 34 bd 3a c5 71 3e
       -0.17556939 -0.028509093 -0.044079468 0.23610392
0001d0 9a c3 eb 3c cb 77 eb bc ce 1b ad be f8 23 6c be
       0.028779794 -0.028743645 -0.33810276 -0.23060596
0001e0 20 ea 37 3d c3 2e db 3b ed f6 cb ba 27 4e 63 be
       0.044901013 0.006688924 -0.001556126 -0.22197782
0001f0 62 42 41 bd 97 31 6d 3d e4 1a e7 bd 7a fc 4c 3e
       -0.04718245 0.05790862 -0.11284426 0.20018187
000200 ad 92 f6 3d 60 a9 5e 3e 9d 44 ec 3d 89 3e 44 3e
       0.12039695 0.21744299 0.115365244 0.1916448
000210 4f eb d8 be fd 81 54 bd 4a 80 3e be e0 c3 ec bd
       -0.42367026 -0.05188178 -0.18603626 -0.11560798
000220 14 3a a9 bd 9e ea 5d be 8c e5 4b 3e 4b 9a f1 3d
       -0.08263031 -0.2167153 0.19911784 0.11797007
000230 72 74 a0 3d c8 7c 1e 3d 7e a0 76 3c 7f ea 58 3e
       0.0783471 0.03869322 0.015052913 0.21183203
000240 ce 10 8d 3c 3d 12 be bd d8 e2 10 bd 59 af 44 3d
       0.017219927 -0.092808224 -0.035372585 0.048018787
000250 0b f6 d4 bb cd c9 3d bd 6b 53 03 3e 68 58 38 bd
       -0.006499057 -0.04633503 0.1282479 -0.045006186
000260 e2 e4 4d 3b 7c 3a a7 3d 84 08 86 3d ba 16 e4 bb
       0.0031416942 0.08165452 0.06544593 -0.006960717
000270 9f d9 3f 3d 6e 2e 35 3d f8 38 75 bd fc a5 df bd
       0.0468384 0.044233732 -0.059868783 -0.10920331
000280 6f 0e 07 be c4 4a d2 bd 51 c2 0f 3e 27 8b 35 be
       -0.131891 -0.10268167 0.1403897 -0.17728864
000290 09 59 02 bd 21 ae c2 3d f8 d9 68 3d b2 c1 f9 3d
       -0.03182319 0.09505869 0.056848496 0.121951476
0002a0 d1 53 58 be 6b f3 1f 3e 09 ee 4f 3e 4d d8 8c bd
       -0.21125723 0.156202 0.20305647 -0.068771936
0002b0 46 17 ca 3e 64 bf dc 3d ba 85 71 be ab ee de 3e
       0.3947088 0.10778692 -0.23586169 0.43541464
0002c0 db 40 cf 3e f6 01 a1 3e ba 7c 3d 3d 59 1b e6 3d
       0.40479168 0.3144681 0.046261527 0.11235685
0002d0 d5 c3 18 be 4d 36 90 be f3 5e 4a be 9f ab c3 be
       -0.14918454 -0.28166428 -0.19762783 -0.38216874
0002e0 72 58 58 3e d9 82 4b bd 13 d3 b2 3e 8d 4c 57 be
       0.21127489 -0.049685333 0.34926662 -0.21025296
0002f0 62 82 41 bd de d5 9a 3d 80 3f 14 3e 76 dd 4e 3e
       -0.047243483 0.07560323 0.14477348 0.20201668
000300 83 99 00 be d4 58 c7 3d 76 60 56 3e 17 c7 a8 bd
       -0.1255856 0.097337395 0.20935234 -0.082410984
000310 c9 a4 1a 3d 75 7c 94 3e 21 09 ba 3c ee 2c f9 3d
       0.037754808 0.29001203 0.022709431 0.12166773
000320 d7 f2 69 3d 5a 02 4e 3c 5c a7 83 bd 76 4a c2 bc
       0.057116356 0.012573803 -0.06428406 -0.023717146
000330 c8 86 4c bc 8b 30 4e be 1b e7 ee bd 42 20 85 bd
       -0.012483306 -0.20135705 -0.116651736 -0.06500293
000340 6f 2c 3d 3c ef 82 cf 3d e6 a9 30 bd 8d a2 08 3d
       0.011546238 0.101323955 -0.043130778 0.033358146
000350 f3 d0 f9 bb a0 31 a4 bc 28 10 e1 bd 6a f0 6c 3e
       -0.0076237856 -0.020043194 -0.1098941 0.23138586
000360 e7 bf 1f 3d d7 3d 2d be 63 87 79 bd 1a e8 62 3e
       0.03900137 -0.16918121 -0.06092013 0.22158852
000370 ed e3 0d be 81 4e 26 3e 2b 68 25 3e af ff 9f 3d
       -0.13856478 0.16240884 0.16153018 0.0781244
000380 88 a9 a8 3d b7 ca 85 bd 5e 29 51 bc b4 3c ec 3d
       0.082354605 -0.065328054 -0.01276621 0.11535016
000390 ba 54 35 be 04 d8 02 3e ae 0e 44 bd 24 9b 12 3e
       -0.17708102 0.12777716 -0.047865562 0.14316994
0003a0 b1 0f 4c be 90 d5 98 3d 92 c1 18 3d 17 08 0c 3e
       -0.19927861 0.07462609 0.037293978 0.13674961
0003b0 17 37 c4 bb 89 c7 ae bc 39 3a 39 3d 68 ca 69 bd
       -0.0059880125 -0.02133538 0.04522154 -0.057077795
0003c0 00 5a 60 be b4 38 35 be 63 c1 83 3d 68 fd e7 3d
       -0.21909332 -0.17697412 0.0643337 0.1132763
0003d0 d5 44 a4 3d 9d 6f 42 3e 49 10 81 be 04 c2 03 3d
       0.08020941 0.1898789 -0.25207737 0.03216745
0003e0 72 27 20 3e 1a b5 52 3e 69 56 90 3d c2 9a 41 3e
       0.15640047 0.20576897 0.070477314 0.18906692
0003f0 0e 83 0e be 0c e8 56 be d7 32 64 be 36 8f 13 be
       -0.13917181 -0.20986956 -0.22285019 -0.144101

layers.0.norm.weight f4 [12]
000000 5f 77 8a 3f 0f 4b 83 3f 34 6c 86 3f 7e 3b 80 3f
       1.0817679 1.0257281 1.0501771 1.0018156
000010 18 60 6f 3f 39 37 89 3f af b3 81 3f 2e 21 7e 3f
       0.93506 1.0719978 1.013296 0.9926938
000020 7a 33 91 3f fe 0d 8b 3f d1 8d 88 3f 6a 5a 8c 3f
       1.1343834 1.0863645 1.0668279 1.0965092

layers.1.mixer.A_log f4 [24, 16]
000000 59 11 51 bc 00 e4 33 3f 5e 7b 84 3f 24 ad a7 3f
       -0.012760484 0.70269775 1.0350149 1.3099713
000010 0a 5c c9 3f 2b a9 ed 3f ea 20 fa 3f ce 04 dd 3f
       1.5731213 1.8567251 1.9541295 1.7267091
000020 98 e2 03 40 f7 12 11 40 ba 08 0e 40 c2 c8 13 40
       2.0607052 2.2667825 2.2192826 2.3091283
000030 96 0c 1b 40 f9 63 26 40 01 2a 2a 40 43 77 29 40
       2.4226432 2.5998518 2.6588137 2.6479042
000040 61 23 8c 3e 2b b3 3d 3f bd 6a 9d 3f b3 b2 c0 3f
       0.27370742 0.74101514 1.2298199 1.5054535
000050 0b 01 fc 3f c5 c7 02 40 14 d3 fd 3f 1f 2d 0c 40
       1.9687818 2.043443 1.9830041 2.190254
000060 dc 37 12 40 b3 21 14 40 83 0a 22 40 6c 2e 23 40
       2.2846594 2.3145568 2.5318916 2.5497084
000070 45 99 29 40 ae 55 26 40 0b 54 27 40 07 85 35 40
       2.6499798 2.5989795 2.6145046 2.8362443
000080 70 96 81 3c 55 f9 3e 3f f9 54 90 3f 68 e3 9c 3f
       0.015818805 0.745992 1.1275932 1.2256899
000090 9f 6b c0 3f 05 e7 e4 3f c5 af ff 3f 4e c4 0b 40
       1.5032843 1.7883002 1.9975516 2.1838565
0000a0 af 7d 08 40 4f b5 14 40 d4 1d 17 40 98 58 23 40
       2.132671 2.3235662 2.3611956 2.5522823
0000b0 a7 e0 19 40 88 05 24 40 2b 30 29 40 5e 60 20 40
       2.4043367 2.5628376 2.643565 2.5058818
0000c0 95 ef bd bd 32 c9 19 3f f1 96 8c 3f 89 52 a1 3f
       -0.09274212 0.60072625 1.0983564 1.2603313
0000d0 5a c1 d9 3f 07 69 df 3f b5 9f ed 3f d3 ed f0 3f
       1.7012131 1.7453927 1.8564364 1.8822578
0000e0 45 a8 0b 40 22 f1 17 40 d9 b0 12 40 36 ba 0c 40
       2.1821454 2.3740926 2.292044 2.1988654
0000f0 5b 04 20 40 61 88 1d 40 c1 8e 29 40 de b1 28 40
       2.5002658 2.461449 2.649338 2.6358562
000100 12 6e ef bb b4 ad 05 3f 8d 08 65 3f f6 e2 9f 3f
       -0.0073068226 0.52218175 0.8946617 1.2491138
000110 bc 96 d6 3f 0c ae d8 3f 50 70 fc 3f 4d be ec 3f
       1.676475 1.6928115 1.9721775 1.8495575
000120 20 0c 00 40 92 c3 05 40 93 b2 0b 40 0a 8f 0c 40
       2.00074 2.0900617 2.1827743 2.1962304
000130 49 2e 1c 40 20 db 28 40 c7 b2 2b 40 6f c6 2b 40
       2.440325 2.6383743 2.6827867 2.6839864
000140 87 07 28 3d 01 b2 42 3f 88 b4 88 3f 2e ce a0 3f
       0.041022804 0.7605286 1.0680094 1.2562921
000150 67 82 b2 3f 0c fe e3 3f 85 5f f9 3f 2c 01 09 40
       1.3946046 1.7811904 1.9482275 2.1406965
000160 ab 48 09 40 d7 39 1c 40 7e ed 06 40 05 fb 27 40
       2.1450603 2.4410303 2.1082454 2.624696
000170 10 7c 1e 40 8a ec 2a 40 f9 32 33 40 59 71 26 40
       2.4763222 2.6706872 2.7999861 2.6006682
000180 19 e9 0c 3e ca 2c 2e 3f 7e 11 a0 3f b2 af a9 3f
       0.13760795 0.6803709 1.2505338 1.3256743
000190 b2 a6 d3 3f 2f d2 03 40 48 41 04 40 53 f6 11 40
       1.6535246 2.0597036 2.0664845 2.2806594
0001a0 68 9b 15 40 97 b1 14 40 b7 31 0e 40 55 69 26 40
       2.3376102 2.3233392 2.2217844 2.600179
0001b0 ec a9 25 40 66 68 22 40 a3 13 26 40 52 e7 30 40
       2.5884962 2.537622 2.5949485 2.7641187
0001c0 99 91 68 3c 8a 64 cb 3e 5d da 7c 3f 48 79 9c 3f
       0.014194869 0.39725143 0.98770696 1.2224512
0001d0 94 f4 d5 3f 16 9b e5 3f 5f 5c e3 3f 9e 64 02 40
       1.6715264 1.7937953 1.7762564 2.0373912
0001e0 9d 2d 02 40 f3 91 01 40 c2 a9 03 40 fb df 06 40
       2.034034 2.024533 2.0572362 2.1074207
0001f0 d8 54 1d 40 a0 cf 1e 40 a5 fc 23 40 33 94 29 40
       2.4583035 2.4814224 2.5622952 2.6496704
000200 e0 c8 d6 3b 4f 41 4b 3f cb 7b 83 3f 60 8d a1 3f
       0.006554708 0.7939653 1.0272154 1.2621269
000210 db 76 d5 3f 4f 1d e0 3f 97 ea 00 40 f7 26 06 40
       1.6676897 1.7508944 2.0143182 2.0961282
000220 50 3c 0c 40 a6 01 1c 40 2a 07 20 40 36 28 1c 40
       2.1911812 2.4376006 2.5004373 2.4399543
000230 ad 2c 25 40 ee 59 28 40 61 5b 2b 40 fc 14 37 40
       2.5808518 2.6304889 2.6774523 2.8606558
000240 3b 39 c9 bd 8c e7 18 3f e2 c3 5e 3f 7e 7c 97 3f
       -0.09825369 0.5972831 0.87017643 1.1834867
000250 cf e5 b6 3f 10 ca c4 3f 2a 7d f2 3f 32 b4 e1 3f
       1.4288882 1.5374165 1.8944447 1.7633116
000260 d4 19 00 40 9e ef 0a 40 23 b1 0a 40 3b b8 12 40
       2.0015764 2.170875 2.1670616 2.2924945
000270 36 6c 1b 40 84 7d 2a 40 44 5d 26 40 1a 6d 21 40
       2.4284797 2.6639109 2.5994425 2.522284
000280 29 de 52 3e 95 e5 3b 3f dc 61 83 3f e3 b5 a9 3f
       0.2059256 0.7339719 1.0264239 1.3258632
000290 d9 b4 b2 3f 28 7a ca 3f f5 fb f3 3f 1a 52 01 40
       1.396144 1.5818529 1.9061266 2.020636
0002a0 55 b6 06 40 4b 1f 17 40 13 9f 22 40 5e 11 20 40
       2.1048787 2.361285 2.5409591 2.50106
0002b0 03 1f 1d 40 ca c8 25 40 38 6a 2a 40 56 b4 2b 40
       2.4550178 2.5903802 2.662733 2.6828818
0002c0 c1 f1 e0 3c 84 7c e7 3e e7 ca 8d 3f 32 cf a1 3f
       0.027459027 0.45212185 1.1077546 1.2641356
0002d0 d2 08 bf 3f 35 d5 e1 3f e8 33 f1 3f 34 27 07 40
       1.4924567 1.7643191 1.8843966 2.1117678
0002e0 95 47 04 40 21 ce 05 40 8c 6d 08 40 06 b2 0b 40
       2.066869 2.090706 2.1316862 2.1827407
0002f0 ea 4d 23 40 08 f2 17 40 2a 63 1e 40 63 77 23 40
       2.5516305 2.3741474 2.4748025 2.5541618
000300 5c 6f a5 3d c7 9e 0b 3f ba bd 87 3f 88 c3 9e 3f
       0.08077881 0.5453915 1.0604775 1.2403421
000310 6e 3f ca 3f 3f f7 e8 3f db 97 ed 3f bf 76 04 40
       1.5800607 1.8200454 1.8561968 2.0697477
000320 05 30 0f 40 de 11 10 40 e5 14 16 40 2f fb 13 40
       2.2373059 2.2510905 2.3450253 2.312206
000330 b9 24 22 40 0d 0e 19 40 a3 bf 1a 40 d9 98 34 40
       2.5334914 2.3914826 2.4179466 2.821829
000340 c9 29 c8 3d bd 40 70 3f 41 83 aa 3f 64 b9 b6 3f
       0.09773595 0.9384878 1.3321306 1.4275327
000350 1d ce de 3f 53 2e f3 3f 8d e1 0c 40 43 45 11 40
       1.7406651 1.8998512 2.2012665 2.2698524
000360 47 dd 13 40 78 a4 28 40 7d 95 2b 40 80 c4 27 40
       2.3103807 2.6350384 2.680999 2.6213684
000370 95 ce 2f 40 a8 bf 30 40 0b 88 34 40 dc f7 3c 40
       2.7469838 2.7616978 2.8208034 2.9526281
000380 e7 fb 4f 3e 9d a0 17 3f d1 b1 a3 3f 52 81 a9 3f
       0.20310937 0.5922945 1.278864 1.324259
000390 99 9e f5 3f 8b db 02 40 2f 2d 01 40 2e cd 0f 40
       1.9189025 2.0446498 2.0183828 2.2468982
0003a0 6b f0 0c 40 f5 20 12 40 9d 50 1e 40 ce 72 22 40
       2.202174 2.2832615 2.4736702 2.5382571
0003b0 93 7d 28 40 f5 02 1c 40 7d bd 1e 40 f6 45 38 40
       2.6326644 2.4376805 2.4803154 2.87927
0003c0 86 18 7e 3e ea 52 19 3f 42 25 91 3f a0 5e 97 3f
       0.24814042 0.5989214 1.1339495 1.1825752
0003d0 4b 05 c8 3f b0 39 e6 3f 46 f3 f1 3f 03 b7 05 40
       1.5626615 1.7986355 1.8902366 2.0892951
0003e0 48 d5 11 40 e8 d9 16 40 6c e2 21 40 71 58 19 40
       2.2786427 2.35705 2.5294447 2.396023
0003f0 12 df 23 40 f3 4b 13 40 c1 4a 17 40 7c 38 39 40
       2.5604901 2.3015106 2.3639376 2.8940725

layers.1.mixer.D f4 [24]
000000 94 a6 4e 3f ac c7 6e 3f ce 0c 54 3f 7f ef 90 3f
       0.8072293 0.93273425 0.8283204 1.1323088
000010 e0 a4 7e 3f 10 d7 0c 3f 08 bc 4d 3f 45 4f 94 3f
       0.9947033 0.5501566 0.8036504 1.1586691
000020 21 0d 51 3f a4 1d 58 3f 4d 86 7d 3f a4 d4 93 3f
       0.8166066 0.8442023 0.9903305 1.1549268
000030 47 fd 86 3f a0 02 85 3f 01 0b 87 3f 24 b2 9c 3f
       1.0546044 1.0391426 1.0550233 1.2241864
000040 2c 20 39 3f fc 3b 94 3f 7b b8 96 3f f5 dc 96 3f
       0.72314715 1.1580806 1.1775049 1.1786181
000050 39 d7 83 3f 28 97 9c 3f 5b b5 35 3f 67 47 3d 3f
       1.0300056 1.2233629 0.7097985 0.73937076

layers.1.mixer.in_proj.weight f4 [48, 12]
000000 6a 58 7d be c5 1a 86 3e 47 3a 71 bd 08 35 82 be
       -0.24740759 0.261923 -0.05889347 -0.25431085
000010 f6 be 02 bd 40 20 05 3c d4 2c 6a 3e 6d ed 3b 3e
       -0.031920396 0.008125365 0.22868663 0.1835229
000020 d6 36 e0 3b 38 8b b6 3e 08 b4 1b 3e 0a 82 97 be
       0.0068424745 0.3565309 0.15205395 -0.295914
000030 e2 a9 5e be 8e bc 9a be 35 71 da 3d 71 39 94 3d
       -0.21744493 -0.3022198 0.10666124 0.072375186
000040 19 9e ef 3d 65 85 db 3c ff 08 96 3d fa 90 12 3e
       0.117000766 0.026797006 0.073259346 0.14313117
000050 0d c3 17 bd 98 a1 01 3d b8 b2 97 be 21 3a 4e be
       -0.03705125 0.03164825 -0.2962854 -0.20139362
000060 da 11 36 3d 01 b7 d4 bd 76 43 29 3d de 10 e4 bd
       0.04445062 -0.10386468 0.0413241 -0.1113603
000070 64 2e ad be a6 ad 7d be 26 b7 a2 3e e4 0c 29 3e
       -0.33824456 -0.24773273 0.31780356 0.16508824
000080 9e 35 8e 3e 5c a2 f6 3d 4a cf 4a 3d c1 3b 30 3e
       0.27775282 0.12042686 0.049514093 0.17210294
000090 4a 80 c5 3e 2e e2 ad bd 03 06 87 3d 50 fc 63 3e
       0.3857444 -0.08490406 0.065929435 0.22264218
0000a0 8c c0 26 3e d2 60 c6 3e 3b 65 17 3e ee aa 3e 3e
       0.16284388 0.38745743 0.1478471 0.18619892
0000b0 82 f9 1c 3d 32 7e 56 3e 21 c7 b2 3e be 5b 0b 3e
       0.038323887 0.20946577 0.34917548 0.13609216
0000c0 48 43 a6 3d 31 57 8e be 9e 19 17 3e cd 62 81 bc
       0.08118302 -0.27800897 0.14755866 -0.015794182
0000d0 fc d6 7b be ab 77 8f bc 72 f3 9b 3e 62 82 06 3d
       -0.24593729 -0.017513117 0.30459172 0.032839186
0000e0 42 f4 5e be ac de 4f 3e 5c 07 9f 3c f5 5c 6c bc
       -0.21772864 0.20299786 0.019412689 -0.01442646
0000f0 f1 dc 41 3e 7f 5d 04 bd 7a b6 77 bd b5 21 a9 3e
       0.18931939 -0.032315727 -0.060476758 0.3303353
000100 ab b5 f0 bd ce ce c3 3d 18 07 c8 bb 73 60 96 bd
       -0.117534004 0.09560929 -0.0061043613 -0.07342615
000110 27 5a 0a be ea a7 00 be b4 4c 8c 3e 66 f3 4b be
       -0.13510953 -0.12564054 0.2740227 -0.19917068
000120 10 0e 7e bd f9 4b 43 3c 02 eb 16 be 8e 1e ae 3e
       -0.06202513 0.011919969 -0.14738086 0.34007686
000130 ba 74 b8 bd aa 6e 2c be 97 9c dc be d5 7b c4 3e
       -0.09006639 -0.1683909 -0.4308822 0.38375726
000140 91 f1 dc be 00 c7 3e bd 75 92 eb be 3f ff 48 be
       -0.4315305 -0.0465765 -0.46010175 -0.19628619
000150 a0 f8 90 be c6 a7 ab 3d 4d fd 91 3e f7 21 a0 3e
       -0.28314686 0.083816096 0.28513566 0.31275913
000160 e8 63 1b be 78 39 80 be 2a 45 86 be ee 46 1d bc
       -0.1517483 -0.25043845 -0.26224643 -0.0095994305
000170 38 17 cf bd b5 12 98 be e9 7c 8e be 8c 06 9e be
       -0.101118505 -0.29701772 -0.27829674 -0.3086437
000180 a9 a3 6d be 14 ff 11 be 11 f6 6e 3e 25 15 b6 3c
       -0.23206963 -0.14257461 0.23336054 0.02222688
000190 94 e7 a0 bb 02 d5 8d bb c0 88 ab be 9b 03 71 3e
       -0.0049104188 -0.004328371 -0.3350277 0.23536532
0001a0 04 f5 5b 3e ae 64 a2 bd f8 42 8c bd 40 70 ea 3d
       0.21480185 -0.079293594 -0.06848711 0.11447191
0001b0 15 12 0b 3e 7d a2 3e 3e c0 72 32 3d 59 2e 87 bc
       0.13581116 0.18616672 0.043566465 -0.016501592
0001c0 b3 b3 80 bc ae 61 9f bc af b5 80 3d 27 f1 e4 3d
       -0.015710687 -0.019455757 0.062846534 0.11178809
0001d0 6a 30 5b 3d 88 ce cb bc b1 8e 53 be ba 28 f9 3c
       0.053512968 -0.024878755 -0.20659901 0.030414928
0001e0 ac 10 90 3e 24 2c 71 be eb 71 fa 3d e1 67 59 be
       0.2813772 -0.23551995 0.122287594 -0.21231033
0001f0 8a d2 17 be 7e 75 f9 3d 9a e2 8e be 2f 12 b8 bd
       -0.14826408 0.12180613 -0.27907258 -0.08987843
000200 b0 72 8d 3d 71 93 12 3c fe f9 79 3e d4 80 4d 3d
       0.069066405 0.008946286 0.2441177 0.05017169
000210 79 86 1f be 23 f1 e7 3d ed b0 c7 be 9c 6a 74 be
       -0.15578641 0.1132529 -0.3900217 -0.23868793
000220 3a b3 41 3b 4c b0 29 3d 96 0d b8 bc 2c 5a 68 3e
       0.002955629 0.041427895 -0.022467416 0.22690648
000230 f5 5f a1 bd 6f 29 22 3e 2c e4 37 bd 5d 70 fb 3d
       -0.078796305 0.15836118 -0.044895336 0.12277291
000240 d0 11 cb bc d2 05 25 3a f5 92 e5 bd 69 a7 f5 bd
       -0.024788767 0.0006295118 -0.112096705 -0.119948216
000250 31 51 18 be 1e 32 ec 3c 15 2f 60 3d 11 7d 3a 3e
       -0.14874722 0.028832491 0.0547324 0.18211772
000260 96 5a 6e be 11 f2 d0 be 35 14 6d be 18 4c 2d be
       -0.23276743 -0.40809682 -0.2315224 -0.16923559
000270 01 7b 9f be 68 f1 71 be 57 ae a7 be f3 e6 2b be
       -0.31148532 -0.23627245 -0.32750198 -0.16787319
000280 68 6b 23 3a 8f 09 4b bd c4 20 01 bd a1 8d a8 3c
       0.00062339613 -0.049569663 -0.03152539 0.020575346
000290 93 a7 52 3d 89 d8 db 3c 21 1f 34 be 6d bb d0 be
       0.051429342 0.02683665 -0.1759 -0.40767995
0002a0 83 d5 8a 3e 7b b2 0d 3e dc a6 76 be dc b7 78 3e
       0.27116022 0.13837616 -0.2408709 0.24288887
0002b0 37 e0 a0 3e ce 73 c7 3c 7d 91 06 3f 16 29 23 3e
       0.31421062 0.024347212 0.5256575 0.15933642
0002c0 75 9a 52 3d 76 ce 0f 3e fa c1 df 3d 7a 83 65 3e
       0.051416833 0.14043602 0.1092567 0.22413436
0002d0 0e df 39 3e 46 52 b5 3d 1e c8 e2 bd 46 e7 89 be
       0.18151495 0.08853583 -0.110733256 -0.2693426
0002e0 af 9a 6b be 6e 8e 37 3e 96 4d fa 3d 8e 0a 61 bd
       -0.23008226 0.17925426 0.122218296 -0.054941706
0002f0 44 c7 68 3d 99 9c 48 be 51 9d 95 bd 79 1c 1f 3e
       0.05683066 -0.19590987 -0.07305396 0.15538205
000300 5d c2 29 3e b8 87 7e bd 30 58 12 3e bc 2f 88 bd
       0.1657805 -0.06214115 0.14291453 -0.066497296
000310 61 84 ec 3d d3 ef 96 3e 46 48 cc 3d 4e cd a3 bd
       0.11548687 0.29479846 0.099747226 -0.07998143
000320 a6 60 28 bd c7 23 47 3c cb 4b 3d 3e bd e0 e5 3e
       -0.041107796 0.012154526 0.18485944 0.44898024
000330 b6 5b 30 3d 90 08 e0 3d 67 31 60 be 62 23 eb 3d
       0.043056212 0.10939133 -0.21893845 0.11481358
000340 38 c5 80 3e 99 9f a8 3e da d0 93 3d a9 0a cf be
       0.25150466 0.32934263 0.0721757 -0.4043782
000350 ee 3a 5a 3e 86 10 23 3e 1f 02 77 3d a0 c0 8a 3e
       0.21311542 0.15924272 0.060304757 0.27100086
000360 8e 71 36 be 66 58 a6 3b fa 2a 40 3e 77 55 9f bd
       -0.17816755 0.005076456 0.18766394 -0.07779973
000370 ab 93 7a 3e d0 9d ad 3d 65 08 c3 3e 2e e5 ca bd
       0.24470393 0.08477366 0.38092342 -0.09906994
000380 c4 a1 00 3e 70 5c 68 3d 5b 8d c2 3e 2c 92 30 3c
       0.12561709 0.05672878 0.3799847 0.010777038
000390 07 f6 af bc 2c 74 5c 3e 57 1a 65 be fb 48 83 3c
       -0.02147962 0.21528691 -0.22373329 0.01602601
0003a0 80 b5 4a 3e 50 c2 c6 3e 7b a0 85 3e d8 f4 b9 be
       0.197958 0.38820124 0.26099 -0.36319613
0003b0 45 be 3b 3e 64 91 60 3e 57 7f a2 3e 27 ab e3 bc
       0.18334301 0.21930462 0.31737778 -0.027791573
0003c0 95 8a e3 bd 41 7c 88 be 56 77 86 bd e9 a8 42 3e
       -0.11110417 -0.26657298 -0.0656573 0.19009747
0003d0 65 04 6b be ea 6a 29 3e 62 d0 87 be 24 cc 77 3e
       -0.22950895 0.1654469 -0.2652617 0.24198967
0003e0 c4 ef 09 3e 3a 52 a0 be f3 a7 16 be ac 23 37 3d
       0.1347037 -0.31312734 -0.14712505 0.044711754
0003f0 8b 66 c9 be d9 76 41 be 46 a1 1a be 29 f5 24 3e
       -0.39336047 -0.18892993 -0.15100583 0.16109146

layers.1.mixer.conv1d.weight f4 [24, 1, 4]
000000 1f 7e 08 3e 60 1c b6 3e ca 20 a3 be 75 1d a4 be
       0.13329361 0.35568523 -0.31860954 -0.32053724
000010 e9 6a 20 3e 15 22 00 3c e5 54 f8 3e 40 65 58 3e
       0.15665783 0.007820626 0.4850227 0.21132374
000020 6a ce e1 be 4c 6b e6 3e 27 da 48 be 63 11 55 3e
       -0.44102794 0.45003736 -0.19614469 0.20807414
000030 b9 7b 9c bd e1 5e 7a be a6 d2 01 be 6f 45 26 3f
       -0.07640786 -0.24450256 -0.12678012 0.649497
000040 da d1 4a 3e 05 00 c2 3e cc 65 c5 bd ef 74 3f 3b
       0.19806615 0.3789064 -0.09638557 0.0029213985
000050 cc 15 78 be 2a dd 12 3e 58 c8 1c bd b0 5c fc bc
       -0.24227065 0.1434218 -0.038277 -0.030805916
000060 f2 5d 9f 3e b8 8e 8b 3e 36 0f c9 bd 83 b3 43 3e
       0.31126362 0.27257323 -0.098173544 0.19111447
000070 c9 fd bf be af b0 0d be e4 ca 70 bd 8c 03 02 bf
       -0.3749831 -0.1383693 -0.05878724 -0.5078666
000080 95 17 40 3e 00 55 c7 3d 36 ba be be 66 f0 8a be
       0.18758996 0.09733009 -0.37251443 -0.27136534
000090 b3 94 c3 be d6 cd ac 3e 67 5e c7 3d 90 75 9c be
       -0.38199386 0.3375079 0.09734803 -0.30558443
0000a0 f3 5b b6 bc 3a 35 b0 bd c6 e8 b2 bd a9 93 ed 3a
       -0.022260642 -0.08603902 -0.08735804 0.0018125671
0000b0 fb 36 09 bd 4b 8d f8 3c d8 0a ae 3e e0 d9 da bc
       -0.0334997 0.030340811 0.33992648 -0.026715219
0000c0 22 09 61 bc 8e 62 39 bc 10 56 05 3e 95 50 09 3f
       -0.013735088 -0.011315001 0.13021111 0.53638583
0000d0 a2 ef 86 3e 6f 82 b0 3d 64 8f 97 be 8f b7 c2 3e
       0.263547 0.08618628 -0.29601586 0.3803067
0000e0 25 9c 09 bf f5 26 3a be 5c c8 b9 bd 1f 92 36 be
       -0.5375388 -0.18178923 -0.09071419 -0.17829178
0000f0 cd 7f fa 3c e2 c2 cd bd 33 7c bb 3e 7d d5 83 3c
       0.030578518 -0.100469366 0.36618194 0.01609301
000100 d1 dc 9a be 52 7c a2 bd c4 54 d3 bd aa 39 66 be
       -0.30246595 -0.079338685 -0.10318902 -0.22482935
000110 d0 19 89 bd c2 d2 0e 3f 99 a2 85 3e 44 08 aa 3d
       -0.066943765 0.5579034 0.26100615 0.08302358
000120 0e a7 5c 3e 6c 5c 1e bd 58 0c 24 bc cf 1b da be
       0.21548101 -0.03866236 -0.010012709 -0.4259934
000130 d0 c1 01 bf 5d 51 90 bd d5 a8 98 3e c6 a6 17 bf
       -0.5068636 -0.07046769 0.2981631 -0.5923885
000140 a5 6a a2 be 12 89 10 bf 52 77 b9 3d 44 3b de be
       -0.31721988 -0.5645915 0.09055962 -0.4340459
000150 bb 59 dc 3e dd 1d 91 be e6 e3 9c 3e 34 9e df 3e
       0.4303721 -0.28343096 0.30642623 0.43675387
000160 79 74 0c 3f 9e 32 2f 3c 35 c5 a6 3b ae d6 49 bd
       0.54865223 0.01069322 0.005089427 -0.049277
000170 8f b6 9a 3d 4b 44 a1 bd 95 df 85 3e b8 b0 01 3d
       0.075543515 -0.07874354 0.26147142 0.031662673
