.Trash-0/files/neuro/models/v4/d6_l12_ksmoothed/best.pt (torch, 78650 bytes, 124 tensors)

layers.0.mixer.A_log f4 [12, 16]
000000 3a 80 fd ba 5f 4e 26 3f 6f 98 8e 3f 54 92 ab 3f
       -0.0019340583 0.64963335 1.1140269 1.3404031
000010 b3 5e d2 3f 7d fd e7 3f 36 a8 f6 3f 3d db 02 40
       1.643515 1.8124233 1.9270084 2.0446312
000020 f0 13 0a 40 b1 d3 10 40 af 3d 1a 40 7b 81 1c 40
       2.157467 2.2629206 2.4100149 2.4454029
000030 72 e1 26 40 8d 76 27 40 bc 35 2b 40 bb 7d 30 40
       2.60751 2.6166108 2.6751547 2.757674
000040 17 52 23 3c 1d cd 43 3f 20 d0 85 3f bf 68 ba 3f
       0.009968302 0.76484853 1.045414 1.4563216
000050 82 ed c4 3f 58 42 e2 3f ee 26 f7 3f c5 a6 03 40
       1.5384982 1.7676497 1.9308755 2.0570538
000060 94 51 10 40 b1 77 17 40 ba eb 18 40 51 ac 23 40
       2.2549791 2.3666804 2.3893876 2.5573924
000070 79 60 1f 40 49 af 2d 40 da e4 2e 40 e4 3d 33 40
       2.4902632 2.7138236 2.732718 2.8006525
000080 8f 92 3c bd 51 2e 2c 3f b3 7b 86 3f 4b ff ad 3f
       -0.046038207 0.67258173 1.05065 1.3593534
000090 06 ab d0 3f c7 6c e9 3f 55 be f1 3f f5 92 07 40
       1.6302192 1.8236321 1.888621 2.1183445
0000a0 58 02 0b 40 fc f1 10 40 96 d3 19 40 4d 0d 1c 40
       2.172018 2.2647696 2.4035392 2.4383118
0000b0 e3 56 26 40 9f cf 2b 40 c4 89 2b 40 07 88 2e 40
       2.5990531 2.6845472 2.6802835 2.7270525
0000c0 00 b9 07 bd 4f 7c 24 3f 78 ec 8e 3f b9 d2 aa 3f
       -0.033135414 0.6425218 1.1165915 1.3345557
0000d0 cf 2a d3 3f 60 f1 e8 3f 3c 33 fc 3f 37 5d 03 40
       1.6497439 1.8198662 1.9703135 2.0525644
0000e0 fd 73 09 40 2d 71 10 40 43 fc 19 40 6f 47 1b 40
       2.1477044 2.2569077 2.4060218 2.426235
0000f0 06 30 27 40 3f dd 27 40 63 64 2b 40 bd 28 2f 40
       2.612306 2.6228788 2.678002 2.7368615
000100 52 a5 31 bd 0d 62 2d 3f 25 69 88 3f 52 59 b0 3f
       -0.043370552 0.6772774 1.0657088 1.3777258
000110 85 e1 cf 3f be 99 e9 3f 1d 17 f5 3f bb a0 02 40
       1.6240698 1.8250043 1.9147679 2.0410602
000120 4d 0d 10 40 37 29 11 40 81 41 17 40 29 57 1c 40
       2.2508118 2.2681406 2.363373 2.4428198
000130 34 26 25 40 11 0c 2c 40 7e 3b 2c 40 3e 48 2e 40
       2.5804567 2.6882365 2.691131 2.7231593
000140 d4 2e 09 3c eb 48 2c 3f a7 2f 8a 3f 1b 0e af 3f
       0.008372981 0.67298764 1.0795792 1.367618
000150 5a 8f d1 3f 92 1f e8 3f c9 60 f4 3f 61 70 04 40
       1.6371872 1.8134634 1.9092036 2.069359
000160 7f f6 0a 40 e0 1c 12 40 de db 18 40 d4 7f 1b 40
       2.171295 2.2830124 2.3884196 2.429677
000170 c8 f4 26 40 9d 98 24 40 a1 b7 2b 40 96 a1 34 40
       2.6086903 2.5718148 2.6830828 2.8223624
000180 1d 3d 31 3d 38 e2 3b 3f 88 2c 8b 3f ac ac b3 3f
       0.043271173 0.7339206 1.0872965 1.403707
000190 a7 e4 c9 3f 2f 37 e1 3f 5c c8 fd 3f 01 31 05 40
       1.5772904 1.7594966 1.982677 2.081116
0001a0 cd 4f 0f 40 da 10 16 40 78 35 1d 40 2c 66 21 40
       2.2392457 2.3447785 2.4563885 2.521861
0001b0 e9 05 22 40 69 3b 2b 40 de c5 30 40 29 b9 34 40
       2.5316107 2.675501 2.7620769 2.8238013
0001c0 20 b6 07 bd 07 a0 2a 3f eb 9d 86 3f b3 c1 ad 3f
       -0.033132672 0.6665043 1.0516943 1.3574737
0001d0 8b a9 d1 3f f4 0d e9 3f bf 7e fe 3f b4 89 02 40
       1.6379865 1.8207383 1.988243 2.0396547
0001e0 f1 cd 0a 40 ec 72 11 40 1f 05 1b 40 f5 1d 1e 40
       2.1688197 2.2726393 2.4221876 2.4705784
0001f0 47 e8 25 40 35 c6 2a 40 f9 f3 2a 40 e9 0f 2f 40
       2.592302 2.6683476 2.671141 2.735346
000200 02 fe f4 bb c6 08 27 3f 13 c2 8f 3f fd 0b ac 3f
       -0.007476569 0.6524776 1.1231102 1.3441159
000210 dc 8a d2 3f e4 1a e9 3f e5 15 f6 3f 6a 2d 03 40
       1.6448627 1.8211331 1.9225432 2.0496469
000220 71 37 0a 40 19 07 11 40 e7 af 1a 40 f0 3a 1c 40
       2.1596339 2.2660582 2.4169862 2.4410973
000230 72 9c 26 40 00 5c 25 40 c7 4b 2b 40 a0 48 30 40
       2.6032987 2.5837402 2.6765 2.7544327
000240 93 9b 3c 3c da a4 26 3f 33 27 8e 3f 14 ff ab 3f
       0.011511701 0.65095294 1.1105713 1.3437219
000250 2a 68 d2 3f 09 fd e8 3f bf c7 fa 3f e2 a8 02 40
       1.6438038 1.820222 1.9592208 2.0415578
000260 7d 35 0a 40 f6 31 11 40 98 5f 1a 40 fb de 1c 40
       2.1595147 2.2686744 2.4120846 2.4511096
000270 1d 7b 26 40 80 08 26 40 ef 0a 2b 40 77 82 31 40
       2.6012642 2.5942688 2.6725423 2.773588
000280 a4 86 b8 3c 10 a2 42 3f 4c fe 88 3f f8 c7 b9 3f
       0.02252514 0.7602854 1.0702605 1.4514151
000290 a1 c7 c7 3f 2d fe e1 3f ef 1e f2 3f 10 93 07 40
       1.5607797 1.7655693 1.891569 2.118351
0002a0 a8 72 0f 40 2a 18 17 40 79 76 19 40 fe 52 1f 40
       2.241373 2.3608499 2.397856 2.4894404
0002b0 f9 8c 1f 40 82 ad 28 40 66 3e 2e 40 ce 3a 33 40
       2.4929793 2.63559 2.7225585 2.8004642
0002c0 bb aa 3d 3d 4b 9d 22 3f 63 66 8f 3f ce 4e aa 3f
       0.0463054 0.6352126 1.1203121 1.3305299
0002d0 7e ae d4 3f 52 1c e7 3f 3a 28 fe 3f 4e 24 02 40
       1.6615751 1.8055518 1.9856026 2.0334659
0002e0 70 10 0a 40 01 0a 14 40 89 31 1a 40 bd 76 23 40
       2.1572533 2.3131106 2.4092734 2.5541222
0002f0 a5 05 25 40 1e e8 26 40 9d 8b 2a 40 04 2f 36 40
       2.5784695 2.6079173 2.6647713 2.8466196

layers.0.mixer.D f4 [12]
000000 77 2c 75 3f e7 f6 89 3f d8 8a 76 3f ac 99 73 3f
       0.9577097 1.0778474 0.9630561 0.9515636
000010 60 14 7f 3f 67 8f 89 3f e7 c5 77 3f ea db 77 3f
       0.99640465 1.0746888 0.9678635 0.9681994
000020 a0 52 78 3f 62 27 79 3f c2 f3 88 3f 6a d9 89 3f
       0.97001076 0.9732572 1.0699389 1.0769475

layers.0.mixer.in_proj.weight f4 [24, 6]
000000 6a 52 d0 bd 6b de 35 bd 43 08 a0 be 4b f3 b2 be
       -0.10171969 -0.044401567 -0.31256303 -0.34951243
000010 80 26 80 be 9a 8f 62 3e ab 6a 9b be 2a 68 1e be
       -0.25029373 0.22125092 -0.3035482 -0.15469423
000020 ba a4 84 be 2e 0f 89 bd 4a be a2 3e 5f c2 98 be
       -0.25906926 -0.066923484 0.31785804 -0.29835793
000030 8c 66 30 3e 1b 2b 9d bd 5b 4c d6 3d 43 c6 8b 3e
       0.17226619 -0.07674237 0.104637824 0.272997
000040 80 78 b8 3e 31 c5 1f 3e d6 d9 12 3e 7f ff 13 be
       0.36029434 0.15602566 0.1434091 -0.14452933
000050 ad 1c 83 bd 0f b5 98 3d 15 ad 86 be 12 98 b4 bd
       -0.06401954 0.07456409 -0.26303926 -0.088180676
000060 c3 5f cc be 9c ec b4 3e 05 4b a3 3e 8a 99 48 be
       -0.3991681 0.3533677 0.31893173 -0.1958982
000070 fc f1 f3 bd aa 14 14 3d 6b 67 43 3e 22 03 d4 be
       -0.11911389 0.03615252 0.1908242 -0.4140864
000080 7c e7 d4 3e 5c fb e8 3e 0b db 91 be 36 4a f1 bc
       0.4158286 0.45504272 -0.2848743 -0.029454332
000090 42 d2 59 3e a6 12 d4 3d 15 d8 76 3e 0f 32 3d 3e
       0.21271613 0.103551194 0.24105866 0.18476127
0000a0 b3 7f 32 be b5 43 6d 3e 63 9c c9 bb 27 55 d5 be
       -0.17431526 0.2317036 -0.006152676 -0.4166653
0000b0 e5 ce ee bd db da c5 3e aa e9 86 be 02 f8 f2 3d
       -0.11660556 0.38643536 -0.26350147 0.1186371
0000c0 6d 85 cd be 47 60 97 3e a2 6f b3 be 20 b0 4e 3e
       -0.40140858 0.2956564 -0.35046107 0.20184374
0000d0 e6 ed 4b 3e 81 e0 68 3e 86 2b 55 bb d6 cd 8d be
       0.1991497 0.22741891 -0.0032527163 -0.27696103
0000e0 5f 13 8d 3b b3 1c 1b 3e 37 01 d1 be 82 94 5f 3e
       0.0043052877 0.15147667 -0.4082124 0.21833995
0000f0 9b 8c 61 3e 46 ff df 3e a0 59 48 bd 9a 12 3a 3e
       0.22026293 0.43749446 -0.048913598 0.18171158
000100 b4 13 18 be 1b 45 05 3e b7 d5 b3 3e 9f ff 8a be
       -0.14851266 0.13014643 0.3512399 -0.27148148
000110 b9 7a c3 3e 09 ed dc 3b ec ba fe 3d 31 8a 28 3e
       0.38179567 0.006742124 0.12437996 0.16458966
000120 b4 41 35 3e 73 1d ab 3e fa 23 ac be 5a f6 ce bc
       0.17700845 0.33420905 -0.33621198 -0.025263954
000130 1e 72 bd be 4f cb 81 be e0 3e 47 3b 1c c3 f6 bd
       -0.37001127 -0.25350425 0.0030402467 -0.12048933
000140 e9 43 b1 be c3 3f 3d be c2 b7 07 3d 58 80 d3 be
       -0.34622124 -0.18481354 0.03313423 -0.41308856
000150 8f 81 96 bd 05 21 c1 3e a1 2f b5 3e 1b b5 82 3d
       -0.0734893 0.37720504 0.353879 0.063821994
000160 91 35 2d be 10 1a 67 be 00 99 5b 3e 1d 65 06 be
       -0.16914965 -0.22568536 0.21445084 -0.13124509
000170 88 36 c2 3e 7c e5 d3 bb 55 e2 47 3e 3a 38 49 be
       0.3793223 -0.0064665657 0.19519933 -0.19650355
000180 40 6e fe bc 42 cc f3 3d 80 11 7f bd d8 32 3a 3c
       -0.03105843 0.119041935 -0.06227255 0.011364661
000190 56 17 94 3e 61 2d 88 be e1 a6 9e be 88 f8 bf bc
       0.28924054 -0.2659712 -0.30986694 -0.023433939
0001a0 3a be ee be e6 2c 43 be 1e 01 26 be c0 0f 10 be
       -0.46629506 -0.19060096 -0.16211364 -0.14068508
0001b0 3b 02 99 be 75 89 27 be 84 93 fe 3d 29 81 b7 be
       -0.29884514 -0.1636103 0.1243048 -0.3584073
0001c0 85 70 a8 3e 0e 14 bc be 53 48 9d be d3 28 a1 be
       0.32898346 -0.3673405 -0.30719241 -0.3147646
0001d0 b0 9b e7 bd 3b f4 9b 3e 5a fe 8a 3e d7 45 34 be
       -0.11308992 0.3045977 0.2714718 -0.17604767
0001e0 c6 10 01 be 96 c7 89 be f0 1e 3c be 12 63 71 be
       -0.12604055 -0.26910084 -0.18371177 -0.23572949
0001f0 e5 43 08 3e 08 42 25 3c 83 e8 fa bb c9 90 a0 3e
       0.1330715 0.010086544 -0.007657112 0.31360462
000200 b0 b2 e9 be d0 6f 4b bd 30 0e 71 be 21 07 44 be
       -0.4564414 -0.04966718 -0.23540568 -0.19143344
000210 0e 80 c9 3e 49 ec 9c be 00 50 0c be f4 e8 e8 3d
       0.3935551 -0.3064902 -0.13702393 0.11372557
000220 f6 54 2d 3e c2 dc c2 bd d3 3a d1 be c7 c1 80 bd
       0.16926941 -0.095147625 -0.40865192 -0.0628696
000230 44 24 38 be a6 93 5c be 4e e7 94 be 95 52 66 3d
       -0.17982584 -0.21540698 -0.2908272 0.0562311

layers.0.mixer.conv1d.weight f4 [12, 1, 4]
000000 b0 ca c2 3e 14 9e a5 3c 18 4f 8a be 14 3c 91 3e
       0.38045263 0.02021698 -0.2701347 0.28366148
000010 80 ac b4 3e 68 be bf be d8 c2 5e 3e c9 f5 1f bd
       0.35287857 -0.37449956 0.21754014 -0.03905276
000020 7e b2 b6 3d 9a 93 bf 3e 5d 3b 7a be f6 68 35 3e
       0.089207634 0.374173 -0.24436708 0.1771582
000030 ff 28 aa be 88 00 bf bc be f2 a7 3e c6 4d 8d 3e
       -0.33234403 -0.023315683 0.32802385 0.275984
000040 48 77 a3 3e 35 12 60 be 1e 49 97 3e e0 1c 2d 3e
       0.31926942 -0.21881945 0.2954797 0.16905546
000050 61 9b 99 bd a3 e1 b2 be 8a 79 d2 3d c1 9b 02 3e
       -0.07500339 -0.34937772 0.10277088 0.12754728
000060 af 83 4e be e5 28 e5 be 20 d0 28 be 50 f1 44 be
       -0.20167421 -0.44757763 -0.16485643 -0.19232678
000070 ec 55 f7 be 85 6f cf 3e 35 d8 f9 3e f7 97 88 3e
       -0.4830774 0.4051477 0.48797765 0.2667844
000080 52 9f 62 be 15 c8 82 be 3a 6a 78 3d 84 11 a0 3e
       -0.22131088 -0.25543275 0.06064818 0.31263363
000090 8b 24 af be aa 0e 82 be 4b 77 d0 be ce 68 37 3e
       -0.34207568 -0.25401813 -0.40716013 0.17911074
0000a0 66 5e e7 3e d3 25 dc 3e 60 ae 51 be 48 7f 81 bd
       0.45189208 0.42997608 -0.20476675 -0.06323105
0000b0 6b 8d 85 bd 34 ae b2 3e bd bf 8b be c3 21 83 3e
       -0.06521114 0.3489853 -0.27294722 0.25611696

layers.0.mixer.conv1d.bias f4 [12]
000000 60 fc 72 be e9 11 98 be 9f 2f b5 3e be 77 a8 3e
       -0.23729086 -0.29701164 0.35387895 0.32903856
000010 f6 bd d7 bd 66 4f 8c 3d f5 1a a9 3e 37 45 67 3e
       -0.10534279 0.068510816 0.3302838 0.22584997
000020 d6 91 7b bd a1 78 56 3e 6e b4 b3 3e 1a f0 e4 be
       -0.061418377 0.20944454 0.35098594 -0.44714433

layers.0.mixer.x_proj.weight f4 [33, 12]
000000 59 82 78 3d da e6 0e be a5 0d 6d be 54 84 db b9
       0.060671184 -0.1395525 -0.23149736 -0.00041869527
000010 fd e5 fd bc 70 3f 74 bd 74 d7 e4 bc 53 60 61 be
       -0.030993456 -0.05963081 -0.027934767 -0.22009401
000020 ba 04 61 3e 05 0d 55 be 81 75 0b 3e 25 88 8b 3e
       0.2197446 -0.20805748 0.13619043 0.27252308
000030 10 e0 8e bd f7 a0 30 be d8 4b 87 be 82 8d f9 3d
       -0.0697633 -0.17248903 -0.26425052 0.121851936
000040 0d 4f 39 3d 13 2b bc bd 0b 0e f6 bb ac 7b 11 be
       0.045241404 -0.09187903 -0.0075089983 -0.14207333
000050 06 6d 57 3d d3 83 49 be ff e6 af 3c b8 43 14 3e
       0.052594207 -0.19679193 0.021472452 0.14478958
000060 1e 17 eb 3c b4 e5 fb 3d 55 cb 5c 3e 13 da d6 3d
       0.028697547 0.12299672 0.2156194 0.10490813
000070 5e d9 d9 3d b6 9d 03 be d6 bd 89 3d e2 a1 9c be
       0.106371626 -0.1285313 0.067256615 -0.30592257
000080 fa 7d 2c be cd b5 18 3e 4b 79 e9 bd ec c8 4b 3e
       -0.16844931 0.14913101 -0.11400088 0.19900864
000090 a7 43 95 3d e7 4d 44 3d 78 50 da 3d 3b 70 81 3e
       0.07288294 0.047925856 0.106598794 0.25280938
0000a0 38 4a 0f 3e 8e 35 22 3e d2 4a 32 be e2 3a 5e 3e
       0.13993156 0.15840742 -0.17411354 0.2170215
0000b0 32 33 14 be b3 41 57 3d 7c a3 9e 3d 93 b0 ff bd
       -0.14472654 0.05255289 0.07746026 -0.12484851
0000c0 ba bb 12 be b2 c5 53 3e ce 62 c4 bd de 16 af 3c
       -0.14329425 0.20680884 -0.09589158 0.021373209
0000d0 06 29 40 be ac f8 15 3a a5 26 73 3e 06 f5 68 be
       -0.18765649 0.0005720954 0.2374521 -0.22749719
0000e0 df ae 98 3c fc 9e 77 3e 28 b3 9b bc 43 d6 62 3e
       0.018638073 0.24181741 -0.019006327 0.22152047
0000f0 be 3a e9 3d 9b 09 56 3e d3 13 7f be 02 2e 4e 3e
       0.11388157 0.20902102 -0.24909906 0.20134738
000100 0e a3 21 bd d9 66 2a be 64 41 7d be 1f 85 21 3d
       -0.03946214 -0.16640796 -0.24731976 0.039433595
000110 e7 e9 37 3e ca 2f 13 3e 5d 25 1c 3e 2d 84 22 3e
       0.1796032 0.14373699 0.15248628 0.15870734
000120 f2 62 5b be 72 99 6b bb f4 b5 a6 bd 65 61 1d be
       -0.21424463 -0.0035949615 -0.081401736 -0.15369184
000130 2a 73 6f be 6b 00 d3 bd d4 07 33 be 06 9d 1e be
       -0.23383775 -0.10302814 -0.17483455 -0.15489587
000140 f4 a8 73 bd fc a4 11 3e 22 fb 52 be 9f 5c 89 be
       -0.059487298 0.14223093 -0.20603612 -0.26828477
000150 56 3d 53 3e 63 43 8c bd 9e 3c 88 be 76 f8 96 3e
       0.20628867 -0.068487905 -0.26608747 0.29486436
000160 c7 fd 94 3e 2d eb 00 3d 94 dd 85 be 68 af 3d bd
       0.29099867 0.03147428 -0.26145613 -0.04630986
000170 b6 7b 36 be cb 09 50 3e c8 a3 8a 3e 76 73 4e be
       -0.1782063 0.20316236 0.2707808 -0.20161232
000180 a2 4a 10 3e 21 e8 15 3e c0 30 81 3e 34 6a 56 3e
       0.1409097 0.14639331 0.25232506 0.20938951
000190 30 b3 2e 3e 25 b2 45 3d 0a 42 de bd 77 ed 43 3c
       0.17060542 0.048265595 -0.1085244 0.0119584715
0001a0 90 55 51 3e bf a1 83 be 56 8c 2b 3d f1 d2 34 be
       0.20442796 -0.2570934 0.04188188 -0.17658593
0001b0 57 ad 6a 3e 98 08 50 bc 7f 0a ea 3d 75 2b 3c 3e
       0.22917686 -0.012697361 0.11427783 0.18375953
0001c0 c3 3b 67 3e 28 92 9e b9 f5 24 5c be 0e f9 57 be
       0.22581391 -0.00030245003 -0.21498473 -0.210911
0001d0 f3 23 7b be a2 4e 60 be ab cc 42 be 8f 8b c3 bd
       -0.24525432 -0.21904996 -0.19023387 -0.09548103
0001e0 ff bd 0b be 41 28 17 be 3b d2 69 be 32 e7 84 3e
       -0.13646697 -0.1476145 -0.22834103 0.25957638
0001f0 8d 81 2e 3e 91 0e 2b 3e f5 41 85 be 20 bd 0d 3c
       0.17041607 0.16704775 -0.26026884 0.008651048
000200 43 1b 1d be f7 e4 2f ba 37 3f d1 bd da de 8c 3e
       -0.15342431 -0.00067098386 -0.102171354 0.27513772
000210 38 98 15 3e 54 39 39 3e 68 28 97 3e df 25 17 be
       0.14608848 0.18088275 0.29523015 -0.1476054
000220 17 8b 95 3e bc 92 00 3e 7a 7b 8c 3e fa a1 ac 3d
       0.2920768 0.12555975 0.27437955 0.08429332
000230 b6 a0 37 be 27 85 22 be b1 24 7f bd d0 40 85 be
       -0.179324 -0.15871106 -0.06229085 -0.2602601
000240 65 9a b3 bd 19 f9 ae 3d 73 96 ce 3c 34 90 8c 3e
       -0.08769683 0.08543605 0.025218224 0.27453768
000250 90 b7 98 3d 95 6f 7d 3d 7b a0 e1 bd 90 00 8b be
       0.07456887 0.06187399 -0.11016937 -0.27148867
000260 8d 02 14 be f4 61 37 be a2 5b 2b 3e a2 46 62 bb
       -0.14454098 -0.1790846 0.16734174 -0.0034526964
000270 79 74 48 be 61 e0 84 be 46 12 22 be d5 de 89 3e
       -0.19575681 -0.25952438 -0.15827283 0.2692782
000280 22 f1 15 3e 46 70 9b 3d 0b 32 96 3e c7 b9 8b be
       0.14642766 0.07589774 0.29335055 -0.27290174
000290 d9 0a 04 be 6d 62 ee 3d f5 ce 9b 3d 67 12 ea bd
       -0.12894763 0.11639867 0.07607833 -0.11429291
0002a0 47 d3 88 be c1 86 2c be 19 82 4b be f3 59 72 be
       -0.26723692 -0.1684828 -0.19873847 -0.23667125
0002b0 61 90 5a bd 7b 8c 16 3e 3a 47 47 3e 5c 2f 3d bd
       -0.053360347 0.14702027 0.19460765 -0.046187744
0002c0 93 90 9f 3d 43 b6 8c 3e 02 e0 0b be 8f a4 28 be
       0.07791247 0.27482805 -0.13659671 -0.16469024
0002d0 b1 b3 87 bc c4 14 15 3e 0b 95 e3 bd 5c 5c 41 3e
       -0.016565176 0.14558703 -0.11112412 0.18882889
0002e0 1c 58 4f 3e 07 e6 16 be 43 e1 99 3d 08 7b 1f b9
       0.20248455 -0.14736186 0.075136684 -0.00015209254
0002f0 50 b9 b7 be a8 20 98 bd 0d 54 71 be ce 55 90 3e
       -0.3588357 -0.07428104 -0.23567219 0.28190464
000300 ca 60 b7 bb a4 93 21 bc f7 25 32 bd 3e 07 01 3e
       -0.005596255 -0.00986186 -0.043493237 0.12600419
000310 5f 4c 06 3e 54 00 6f be 7b 14 17 3d 9c ec 18 be
       0.13115071 -0.23339969 0.036884766 -0.1493401
000320 c1 04 8f 3d 82 82 d0 3d 11 e9 ea 3d 6c ef a1 be
       0.069833286 0.101811424 0.11470235 -0.31627977
000330 cd 61 4d be 3e 90 11 be db 69 83 3a 9c 60 ea bd
       -0.2005684 -0.1421518 0.0010026054 -0.11444208
000340 f2 83 af be f7 f5 6f be 95 8e 47 3e 3d 82 7b 3e
       -0.34280354 -0.23433672 0.19487984 0.245614
000350 f1 7d f3 3d 19 b7 97 bd cd be 9f bd 42 80 c1 bd
       0.11889256 -0.0740797 -0.07800064 -0.09448291
000360 92 49 0f 3e 9b c1 62 3e cd c7 22 3d 8b 9f 24 be
       0.13992909 0.22144167 0.039741326 -0.16076486
000370 93 de 24 3e 43 0e 23 3e 1e 9f 59 be 49 2f 49 3e
       0.1610053 0.15923409 -0.21252105 0.19646944
000380 31 49 40 be f7 83 87 3e ca c5 54 3e 67 dc 46 3d
       -0.1877792 0.2646787 0.20778576 0.048550036
000390 44 f3 28 be 63 c6 52 bd fa 14 77 bd 1e 24 a1 3e
       -0.16499048 -0.051458728 -0.06032274 0.31472868
0003a0 21 75 30 3e 00 8e 0f 3e a9 bb 1c 3e 0f 7d fc bd
       0.17232181 0.14019012 0.15305962 -0.123285405
0003b0 72 cb 11 be 95 c7 34 3e fe b1 7e 3e 78 72 46 3e
       -0.14237764 0.1765426 0.24872586 0.19379604
0003c0 65 da 7f be 6a a6 e6 3d 8c e3 30 be d7 fc 39 3e
       -0.24985655 0.1126221 -0.17274302 0.18162857
0003d0 6e 15 52 bd 0d 6b be 3a 8c f9 14 be 60 7e 06 be
       -0.05128997 0.0014527753 -0.1454832 -0.13134146
0003e0 ff 03 12 3c 3e 03 81 3d 76 7c 21 3e a5 a2 6f 3e
       0.008912086 0.062994465 0.15770134 0.23401888
0003f0 b6 84 4e 3e 06 7d 8d 3d 9d 7e 41 bd 50 cb 78 3e
       0.20167813 0.06908612 -0.04723989 0.24296308

layers.0.mixer.dt_proj.weight f4 [12, 1]
000000 ad 53 75 3f cc f1 3e 3d 5d 82 80 bf e3 0f 1f bf
       0.95830804 0.046617314 -1.0039784 -0.62133616
000010 41 11 9c 3e d0 b9 d2 be 1f 65 d2 3e 4b fe f9 be
       0.30481914 -0.4115739 0.41092774 -0.48826823
000020 e3 7c 04 3f b2 5b 9b be 26 ff 7e 3f 03 29 76 bd
       0.5175306 -0.30343395 0.99608076 -0.060097706

layers.0.mixer.dt_proj.bias f4 [12]
000000 03 45 b4 c0 1d bf 3a c0 96 f8 6a c0 a9 61 59 c0
       -5.6334243 -2.9179146 -3.6714225 -3.3965857
000010 54 c5 31 c0 48 52 b8 c0 79 d4 89 c0 2e b7 88 c0
       -2.777669 -5.760044 -4.3071866 -4.272361
000020 56 9d 99 c0 b4 9d a7 c0 54 55 2c c0 f8 8e b4 c0
       -4.800456 -5.238001 -2.692708 -5.6424522

layers.0.mixer.out_proj.weight f4 [6, 12]
000000 86 51 42 be 0a 60 3d 3d 0b fe a5 be 05 7f d1 3d
       -0.18976411 0.046234168 -0.32420382 0.10229305
000010 85 a0 be bd 46 38 5a be 08 8c 2b be e3 80 a1 bc
       -0.093079604 -0.21310529 -0.16752636 -0.019714778
000020 e1 2f 3e 3d 20 3d 67 be 80 b2 6b bb 54 73 be 3d
       0.04643238 -0.22581911 -0.0035964549 0.09299341
000030 7d 48 56 be 65 9c 82 be 2a 6c 82 3e f5 cb 91 3d
       -0.2092609 -0.25509945 0.25473148 0.0711898
000040 ff 36 85 be 60 b2 97 3e 73 67 4f be 68 3e c9 3c
       -0.2601852 0.29628277 -0.20254306 0.02456589
000050 71 dc 7b be e5 1c ab 3d a8 da a1 3e 8a 18 64 bc
       -0.2459581 0.083551206 0.31612134 -0.013921866
000060 e9 fb 9a 3e a6 96 14 be 48 3e 4a be ab e6 22 3e
       0.30270317 -0.14510593 -0.19750321 0.15908305
000070 b6 3e 8c be fe 08 2f be 9c 7d a7 3c a8 89 08 3d
       -0.27391595 -0.17093274 0.020445637 0.033334404
000080 c8 6e cd 3d 14 ad 84 3e 0e ab a0 be c6 51 47 be
       0.100308955 0.25913298 -0.31380504 -0.19464788
000090 e2 de 13 3e c2 b6 9a 3e 6e 83 3f 3e 2b bc 05 be
       0.14440492 0.30217558 0.1870248 -0.13060062
0000a0 c0 02 58 3e 9d ac 56 be 92 2f 0a 3d f2 f5 6b 3e
       0.21094799 -0.20964284 0.033736773 0.2304304
0000b0 b4 bd 7b be 4c 50 df bd a1 b1 5e 3e d1 f1 a7 be
       -0.24584085 -0.10903987 0.21747448 -0.3280168
0000c0 be d4 50 be 98 32 09 3e 79 e7 b6 3d ff 03 2c be
       -0.20393655 0.13398206 0.08930869 -0.167984
0000d0 28 42 2b 3e fc ab e8 3d 5e b2 b8 3d 21 cf 2a be
       0.16724455 0.113609284 0.09018396 -0.16680576
0000e0 84 e5 57 be 8c bf c8 3c f8 75 6c 3c 0a 55 24 be
       -0.21083647 0.0245054 0.014432423 -0.16048065
0000f0 09 ea 63 3e d8 42 fd 3c b4 b9 76 be 48 09 05 be
       0.22257246 0.030915663 -0.24094278 -0.12991822
000100 04 c0 84 3e fd 99 db 3d 71 8f 8d 3d 3c 82 2c 3d
       0.25927746 0.1072273 0.06912125 0.04211639
000110 92 4f 58 3c 3b 59 33 be 38 9c 70 3e 94 94 22 3e
       0.013202565 -0.17514507 0.23497093 0.1587699

layers.0.norm.weight f4 [6]
000000 2b 2d 88 3f 12 a8 87 3f df 8b 88 3f a3 91 87 3f
       1.0638784 1.0598166 1.0667685 1.059132
000010 26 13 88 3f dd 6d 77 3f
       1.0630844 0.96652013

layers.1.mixer.A_log f4 [12, 16]
000000 7a 90 19 3b 47 4e 41 3f 22 42 8f 3f b8 63 ba 3f
       0.0023432062 0.75510067 1.1192057 1.4561682
000010 b1 1f d4 3f e0 01 ed 3f 6e 68 00 40 66 e9 09 40
       1.6572171 1.8516197 2.006374 2.1548705
000020 24 10 10 40 68 c5 17 40 b8 99 1d 40 fb 3d 23 40
       2.2509851 2.3714237 2.4625072 2.550658
000030 aa a2 28 40 9b 9b 2c 40 d5 d9 30 40 c0 09 36 40
       2.6349282 2.6969974 2.7632954 2.844345
000040 00 b0 d3 bc 84 04 1e 3f 04 fa 87 3f c1 8f a7 3f
       -0.02584076 0.6172564 1.0623174 1.3090745
000050 d4 de c4 3f 7b 74 db 3f 52 4a ef 3f f9 59 00 40
       1.5380502 1.7144922 1.8694556 2.0054915
000060 54 d5 07 40 9c 5b 0e 40 a1 73 14 40 05 04 1a 40
       2.1223955 2.2243414 2.3195574 2.4064953
000070 d1 20 1f 40 b6 12 24 40 a4 84 28 40 81 77 2c 40
       2.486378 2.563642 2.6330957 2.694794
000080 5e 35 24 bd 34 d0 1e 3f d2 50 86 3f 30 a4 a7 3f
       -0.040089957 0.6203644 1.0493414 1.3096981
000090 2a 07 c6 3f 9e f8 db 3f db 8a ef 3f 9b 6d 00 40
       1.5470936 1.7185247 1.871425 2.0066898
0000a0 8e 1e 08 40 2c 9e 0e 40 83 d0 14 40 e9 2f 1a 40
       2.126865 2.228404 2.3252265 2.4091742
0000b0 43 32 20 40 b6 fb 24 40 70 19 29 40 6b 02 2d 40
       2.5030677 2.5778632 2.6421776 2.7032726
0000c0 e7 4a a6 bc 7a e8 1d 3f 89 f8 87 3f af 74 a7 3f
       -0.020299388 0.61682856 1.0622722 1.3082484
0000d0 55 f0 c4 3f 40 81 db 3f ac 68 ef 3f b2 2c 00 40
       1.5385844 1.7148819 1.8703818 2.002728
0000e0 4c e0 07 40 cd 54 0e 40 d7 77 14 40 5a 07 1a 40
       2.123065 2.2239258 2.3198144 2.4066987
0000f0 82 22 1f 40 8e 44 26 40 0f 7d 28 40 7c e6 2c 40
       2.4864812 2.5979342 2.632633 2.7015676
000100 ae e9 b6 bc ad bb 29 3f d2 97 89 3f ad c0 ac 3f
       -0.022328224 0.66301996 1.0749457 1.34963
000110 07 5f c9 3f a9 80 df 3f 52 21 f6 3f 01 a1 02 40
       1.5732125 1.7461139 1.9228919 2.041077
000120 80 24 0a 40 0c 24 11 40 b2 7c 16 40 82 f6 1b 40
       2.1584778 2.2678251 2.3513608 2.4369206
000130 71 f5 20 40 31 6c 25 40 26 64 2b 40 b9 35 2e 40
       2.5149806 2.5847285 2.6779876 2.722029
000140 7a 59 53 bd 9c ae 36 3f 23 c6 85 3f cb 54 b3 3f
       -0.051599003 0.7136018 1.0451092 1.4010252
000150 a4 a9 d1 3f dd 20 e8 3f b8 a6 fb 3f 33 b7 05 40
       1.6379895 1.8135029 1.9660254 2.0893066
000160 4e 47 0e 40 e8 4f 14 40 45 b1 1a 40 5c 33 20 40
       2.223102 2.317377 2.4170697 2.5031347
000170 c6 2f 25 40 15 f5 29 40 6f 14 2e 40 5d 50 32 40
       2.5810409 2.6555836 2.7199972 2.786155
000180 30 39 2a bc ac 4a 1f 3f 20 9d 83 3f 66 eb a7 3f
       -0.010389611 0.62223315 1.0282326 1.3118713
000190 a9 c7 c5 3f c6 f9 db 3f c0 5d ef 3f 39 5d 01 40
       1.5451556 1.71856 1.8700485 2.0213149
0001a0 af 9f 0c 40 4d bc 0e 40 00 a6 14 40 af 95 1a 40
       2.1972463 2.230243 2.3226318 2.415386
0001b0 4a 32 22 40 79 6b 2a 40 70 c7 2c 40 08 91 2c 40
       2.5343194 2.6628096 2.6996727 2.696352
0001c0 f6 6f a0 bc 4d 17 1e 3f ac d1 88 3f 67 76 a7 3f
       -0.019584637 0.61754304 1.0688987 1.3083009
0001d0 2d 25 c5 3f 51 9d db 3f a9 85 ef 3f 1c 07 00 40
       1.540197 1.7157384 1.8712665 2.000434
0001e0 70 f9 07 40 b0 56 0e 40 91 80 14 40 30 0d 1a 40
       2.1245995 2.224041 2.320347 2.407055
0001f0 d0 26 1f 40 85 41 25 40 e5 68 28 40 d5 fb 2c 40
       2.486744 2.582124 2.6314023 2.7028706
000200 79 9e c0 bc dc 74 1d 3f d0 f2 88 3f 75 41 a7 3f
       -0.023513066 0.6150644 1.06991 1.3066851
000210 e8 86 c4 3f 0f 4a db 3f 1b f9 ee 3f 21 d7 ff 3f
       1.535367 1.7131976 1.8669771 1.9987527
000220 61 b7 07 40 69 41 0e 40 72 5f 14 40 b0 f1 19 40
       2.1205676 2.2227423 2.3183255 2.4053764
000230 bf 80 1f 40 fb cd 23 40 48 1f 28 40 06 54 2c 40
       2.492233 2.559447 2.6269093 2.6926284
000240 62 ad 22 bd 40 cb 37 3f de 7d 88 3f f8 5c b4 3f
       -0.039716132 0.7179451 1.0663412 1.4090872
000250 4a bf d1 3f c4 a4 e8 3f e5 18 fc 3f 32 34 06 40
       1.6386502 1.8175282 1.9695097 2.0969357
000260 43 71 0e 40 a4 b5 14 40 a5 07 1b 40 c0 9b 20 40
       2.225663 2.3235865 2.4223416 2.5095062
000270 86 b3 25 40 be 55 2a 40 1c ea 2d 40 0b dc 32 40
       2.5890822 2.6614833 2.717414 2.7946804
000280 4b 0d 00 bd b8 3c 1d 3f cb 18 89 3f f2 4f a7 3f
       -0.031262677 0.61420774 1.0710691 1.3071272
000290 a9 38 c4 3f 10 29 db 3f 46 b8 f3 3f 1d 03 00 40
       1.5329791 1.7121906 1.9040611 2.00019
0002a0 71 a1 07 40 a1 37 0e 40 76 54 14 40 ee e8 19 40
       2.1192286 2.2221453 2.317655 2.404842
0002b0 3b 04 1f 40 55 c6 23 40 71 2c 28 40 ec 50 2c 40
       2.4846332 2.5589802 2.6277125 2.692439
0002c0 e5 21 f1 bc 07 0f 1d 3f 5a fa 88 3f 86 2f a7 3f
       -0.029435107 0.61351055 1.0701401 1.3061378
0002d0 38 01 c4 3f 65 12 db 3f 6b 56 f2 3f 3c e3 ff 3f
       1.5312872 1.7114989 1.8932623 1.9991221
0002e0 23 8b 07 40 0e 37 0e 40 c4 4d 14 40 56 e3 19 40
       2.1178672 2.2221103 2.3172464 2.4045005
0002f0 1a 06 1f 40 8d bf 23 40 eb 28 28 40 6d 4f 2c 40
       2.4847474 2.5585663 2.6274974 2.6923478

layers.1.mixer.D f4 [12]
000000 28 e6 74 3f 72 b6 88 3f bc ed 89 3f da d0 88 3f
       0.9566369 1.0680678 1.0775676 1.0688736
000010 83 12 8a 3f 7d f9 77 3f b8 95 76 3f 5a 51 88 3f
       1.0786899 0.96865064 0.963222 1.0649827
000020 20 04 89 3f 18 62 77 3f 06 34 89 3f 21 bd 89 3f
       1.0704384 0.96634054 1.0719001 1.0760843

layers.1.mixer.in_proj.weight f4 [24, 6]
000000 0c 56 a8 be 51 0c b5 be 7b 11 e5 3e a4 73 9f 3e
       -0.3287815 -0.3536096 0.447399 0.31142914
000010 58 1f cc 3d 6c 0a 39 3d d2 e8 47 3e ac c0 19 be
       0.09966916 0.045175955 0.19522408 -0.15014905
000020 be 9e 7a be 9e 65 4d be 77 47 b2 be eb 87 79 be
       -0.24474618 -0.20058295 -0.34820148 -0.24368255
000030 22 5f 9c be c4 d6 63 3e f3 3d 10 be a9 1b 1f 3e
       -0.3054133 0.22249895 -0.14086132 0.15537895
000040 a1 96 f6 3e 8e 9a d8 be 83 86 31 3e 65 ed db 3d
       0.48161796 -0.42305416 0.17336468 0.10738639
000050 5b a5 2a 3e 7b aa 35 be 9d 5a c8 3c 8e d3 74 3e
       0.1666464 -0.17740814 0.02445727 0.23908827
000060 19 68 ad 3e 03 f2 98 bd 86 37 d4 3d 32 2d 51 3e
       0.33868483 -0.07468035 0.10362153 0.20427397
000070 f1 c7 17 3e dc 7c 56 bd 59 55 b3 3e 88 e2 22 be
       0.14822365 -0.05236517 0.35026053 -0.15906727
000080 70 c9 be 3e 4f 00 e3 bb 14 d1 3a 3e d9 20 cd 3d
       0.3726306 -0.006927527 0.1824382 0.10016031
000090 f8 bb 8a 3d 39 47 8f 3e 6d 68 ac 3e ef 25 9e bd
       0.067741334 0.27984026 0.3367342 -0.07722079
0000a0 24 1b a2 be 8d 82 de be df b6 ac 3e dc 39 f7 3d
       -0.31661332 -0.43458977 0.3373327 0.12071583
0000b0 41 a7 ef 3e 3c 59 a8 be 71 44 1e 3e e6 5a e2 be
       0.46807292 -0.3288058 0.15455796 -0.44209975
0000c0 36 8f 47 be 39 e9 5c be 09 6d 89 3e 8e a9 86 be
       -0.19488224 -0.21573342 0.26841 -0.26301235
0000d0 8a 2f 6e be 80 48 cc 3e 35 5b 3c be 25 db 19 bd
       -0.23260322 0.39899063 -0.18394168 -0.037562508
0000e0 2e 17 93 3e d5 af 2b be 84 96 bf 3e 77 80 94 3e
       0.28728622 -0.16766293 0.37419522 0.2900426
0000f0 39 0e d3 bd 5c 5d cc be 90 c8 c3 3e ab bb 86 3e
       -0.10305447 -0.39914978 0.38238955 0.26315054
000100 59 d4 63 3d 92 4f a1 bd 5d 87 9c 3e 52 df 11 be
       0.055622432 -0.07876505 0.30572024 -0.14245346
000110 0f da 85 3e 9f e2 be 3e bd f6 25 be 70 1c a7 be
       0.26142928 0.37282273 -0.16207404 -0.32638884
000120 65 fe bf 3e d5 71 20 bd d7 8c e3 3e 19 d0 99 bd
       0.37498775 -0.03917106 0.4444339 -0.075103946
000130 69 98 b5 be 9a 8e 9b 3e 10 26 9c bd 87 e2 1c be
       -0.35467842 0.30382234 -0.07624447 -0.15320788
000140 db de ad 3e d0 da 78 3e ad 41 2c be ba bd ba be
       0.33959088 0.2430222 -0.16821928 -0.36472875
000150 f1 b5 8f 3e 8e 0f 73 3e 13 03 f1 3e 3a fb 6f be
       0.28068498 0.23736402 0.47072658 -0.23435679
000160 12 df 31 be 46 a4 63 be 6c 14 0c 3b 97 de 20 bd
       -0.17370251 -0.22230634 0.0021374477 -0.03927478
000170 60 33 a4 3d 7a ac 00 3d 22 08 d8 3d 3c 63 a3 be
       0.080176115 0.031414486 0.10548426 -0.31911647
000180 38 42 f3 3e fe b7 a5 3c c1 ab 6d 3e 8c fa ef 3d
       0.47511458 0.020229336 0.2321005 0.1171771
000190 d9 67 af 3e 90 11 d5 bc ca d3 f6 bc 3c 88 ac 3e
       0.34258917 -0.026009351 -0.030130286 0.3369769
0001a0 17 1a 7a 3e 5f b7 bf 3e 22 b2 7a 3e ea e5 9c 3e
       0.24424015 0.3744459 0.24482015 0.3064416
0001b0 d5 a1 87 3e 31 0b a9 3e 36 ef 89 be e7 92 26 be
       0.26490656 0.3301635 -0.26940316 -0.16266976
0001c0 2a a3 b6 3d 83 97 a3 bd d4 91 6c be af b4 ae be
       0.0891784 -0.07987883 -0.23102504 -0.34122226
0001d0 1f 90 b0 3e 6b ff c9 3c dd a6 85 3e 4e 9f c5 be
       0.34484956 0.024657926 0.2610387 -0.38598102
0001e0 50 e7 22 be f4 e3 0e bd d1 7e 88 bd 18 b5 bc 3e
       -0.15908551 -0.03488536 -0.06664813 0.36856914
0001f0 af a7 27 3e 98 4c be be 1f 8b a5 3e 05 03 14 be
       0.1637256 -0.3716781 0.32332703 -0.14454277
000200 44 51 5f be 22 76 85 bd 46 52 52 bb 6d 4b 6c be
       -0.21808344 -0.06516673 -0.0032092496 -0.23075648
000210 18 2c 33 3e b4 cd 73 3c 32 d7 dd 3c 86 65 02 be
       0.17497289 0.014880586 0.027080152 -0.1273404
000220 4e 07 37 3e d5 91 d0 3e a4 4f 74 be 35 1e 93 ba
       0.1787388 0.4073626 -0.23858505 -0.0011224212
000230 dd 0d 0e 3d 63 3d 97 be c7 b5 7c 3e fc 1f 82 3e
       0.03468119 -0.29539022 0.24678718 0.25415027

layers.1.mixer.conv1d.weight f4 [12, 1, 4]
000000 c8 23 56 bd ae a9 0a 3f 16 11 fb 3e b5 e9 9e bb
       -0.052280217 0.5416516 0.49036473 -0.0048496374
000010 ec 26 79 3e 7d 3d a2 bd 4b 39 51 be 32 54 5e 3e
       0.24331254 -0.07921884 -0.20432012 0.21711805
000020 a7 cf e0 3e 9f 42 7e be e4 c4 05 bf 96 4d 76 be
       0.43908426 -0.24830101 -0.52253556 -0.24053034
000030 d8 02 58 3e 4c dd 76 3e ef 3b a6 3e a1 c4 06 bf
       0.21094835 0.24107856 0.324676 -0.5264378
000040 ac f6 f1 be d0 59 31 3d c1 f2 f0 be 4e d8 01 bf
       -0.47258508 0.043298542 -0.47060207 -0.5072068
000050 03 3f 5a be d3 e9 98 3e bd f7 cc bd 32 3b e7 3d
       -0.213131 0.29865894 -0.1000819 0.112905875
000060 70 9b de be 5b 58 22 be 4c 71 5d 3e 9b 50 af 3e
       -0.43477964 -0.15854017 0.2162525 0.34241185
000070 fb 3f a8 3e c4 1f d4 3d a9 74 bf be 06 f3 e1 3e
       0.32861313 0.10357621 -0.37393692 0.44130725
000080 e4 52 ae 3c 90 54 de 3a 6b e9 7d 3e 77 a1 25 3e
       0.02127976 0.0016962457 0.24796073 0.16174875
000090 74 9e b4 be cf 6c 30 3e ca f4 59 be da 3a 7d 3e
       -0.3527714 0.17229007 -0.21284786 0.24729481
0000a0 74 c9 0b 3f 97 80 09 3f 95 23 08 3f 02 ed c6 3d
       0.5460427 0.5371184 0.53179294 0.097131744
0000b0 4a 94 b1 bc 9f ac 92 be 94 d1 33 be 21 4a 75 be
       -0.021677155 -0.28647324 -0.17560416 -0.23954059

layers.1.mixer.conv1d.bias f4 [12]
000000 0a 93 cd 3e 4b d4 0b 3f b5 a5 42 3e 8c 8a fa be
       0.40151244 0.5462081 0.19008525 -0.48933828
000010 e4 cb b9 bd 4c e2 e8 3d 29 45 fa 3d 6d b2 ba be
       -0.09072092 0.11371288 0.122202225 -0.36464253
000020 fe 5c ac 3e 9a 5e bb be 60 27 f2 bd 43 99 a4 3d
       0.33664697 -0.36595613 -0.118239164 0.08037045

layers.1.mixer.x_proj.weight f4 [33, 12]
000000 c2 00 91 3e 7a 0c bd 3c 26 3a 51 bd 87 9b 0c be
       0.2832089 0.023077238 -0.051080845 -0.13731204
000010 83 44 01 be 11 18 22 be 40 fa 5c 3c d9 5f 68 bc
       -0.12623791 -0.15829493 0.013487399 -0.014183008
000020 6d 2a 42 3e 7d 5e 60 be da d3 ba 3c 4d 01 78 3d
       0.18961497 -0.21911044 0.022806097 0.060548116
000030 f9 fe 37 3e 25 69 41 be 78 cf 1f be da 55 82 bd
       0.17968358 -0.18887766 -0.15606487 -0.06364031
000040 fe 3a eb bd 57 e1 c9 bc c0 6e 35 be b4 60 69 3e
       -0.11485861 -0.024643583 -0.17718029 0.22790796
000050 8c 35 c0 bd a6 85 1e 3e ab 8b 3b be 96 35 40 be
       -0.09385213 0.1548067 -0.18314998 -0.18770441
000060 d8 e8 a6 3e 44 eb 06 3e a6 68 ea 3d 57 cd 7e be
       0.3259952 0.13175684 0.11445741 -0.24883018
000070 b6 2e 2d be f7 37 12 3e aa 1e 11 bd 16 9c 97 3d
       -0.1691235 0.14279161 -0.035429634 0.07402818
000080 1f f7 84 bd ae 66 6b 3b e1 43 af be 65 5a 8c bd
       -0.06492447 0.0035919356 -0.34231475 -0.06853179
000090 f0 b7 89 bd fc f3 4c 3d 7f 83 90 be c6 b8 80 bd
       -0.067245364 0.05003737 -0.28225324 -0.06285243
0000a0 1c 54 b8 3b 46 4b 62 3d d1 ee 02 be 4f 2e 71 3e
       0.005625261 0.055247568 -0.12786414 0.23552822
0000b0 08 e2 8c 3c 8f 4b 72 3e 7f af 41 3e cb c2 27 be
       0.017197624 0.23661636 0.18914603 -0.16382901
0000c0 1e 2e 7d be 57 81 aa be fc a3 bc bd 89 00 98 3e
       -0.24724624 -0.33301803 -0.09210965 0.29687908
0000d0 df 84 10 be 71 a2 65 be 1e a7 29 be 20 c8 bb bc
       -0.14113186 -0.22425248 -0.16567656 -0.022922575
0000e0 e3 4b 41 bd bd 72 c9 bc 2f da f4 bd 01 f2 a0 bd
       -0.04719151 -0.024590844 -0.11955678 -0.078586586
0000f0 f5 a3 51 be 5f a2 8e be 1b c0 a7 be c6 06 8d 3d
       -0.20472701 -0.27858254 -0.32763752 0.068860576
000100 c8 59 9c be b2 7c c7 3d e4 13 28 3e 87 77 2b 3e
       -0.30537248 0.097405806 0.16413838 0.16744815
000110 cf df 2b be 54 32 b6 3e 42 88 4c be 55 43 7a be
       -0.16784595 0.35585272 -0.19973853 -0.24439748
000120 1a 2d 14 be 34 43 45 bd 92 97 bb be 94 54 b1 3e
       -0.1447033 -0.048159793 -0.36639076 0.3463484
000130 a7 01 90 be 34 b9 47 be 6b 6b 8c 3e 96 08 97 3e
       -0.2812626 -0.19504243 0.27425703 0.29498738
000140 c5 a5 c0 bc b5 6e 2c be 5e 63 b2 3e e9 df 93 be
       -0.023516545 -0.16839106 0.34841436 -0.28881767
000150 cd 70 4a 3e 96 c2 0d bd d7 13 dd bd 5e 75 23 be
       0.19769593 -0.0346094 -0.107948 -0.15962741
000160 e9 6a cc bd eb d5 33 bd 4a 1b 4d 3d 93 b4 d9 bd
       -0.09981329 -0.04390518 0.050074853 -0.10630145
000170 51 02 84 3e b1 c6 b3 3d 54 f4 19 3e bc 6c 84 3e
       0.25783017 0.08778132 0.1503461 0.25864208
000180 f9 90 29 3e b1 c0 81 be 3d ff ae be 09 3c a2 3e
       0.16559209 -0.25342324 -0.34179106 0.31686428
000190 af 42 23 3e 95 be 8e be ce 69 81 3c ff 55 1a be
       0.15943407 -0.27879778 0.015797522 -0.15071867
0001a0 0e 3f 53 be d6 0d 9f bc 3f 8a c0 bd ba 24 e0 3d
       -0.20629522 -0.019415777 -0.09401368 0.10944505
0001b0 67 d6 9d be 45 ae 9a bd ca 35 33 bb 39 41 b6 3e
       -0.30827639 -0.075527705 -0.0027345293 0.35596636
0001c0 78 f7 90 be 6d 5b 40 bd 1f 0f a0 be c5 a9 1b 3d
       -0.28313804 -0.04696219 -0.31261536 0.0380037
0001d0 2e 7a d0 3b 57 4e c6 3c cf 13 99 3e 56 2e c8 bd
       0.006362221 0.024207277 0.29897925 -0.09774463
0001e0 75 12 63 3e 54 41 ed 3d f1 5f 23 3e 1c e2 40 be
       0.2217501 0.11584726 0.15954567 -0.18836254
0001f0 a8 fe 41 be 68 20 03 3d bd e3 a9 bb 7b 6f 0e 3e
       -0.189448 0.032013327 -0.005184619 0.13909714
000200 8a 56 5b 3e 1b 15 35 3e 1a 91 8d 3d 77 c9 4d 3e
       0.21419731 0.17683832 0.069124416 0.20096384
000210 00 f1 53 be f8 b0 a4 3d 12 7d bb bb 0b c5 1a 3d
       -0.20697403 0.080415666 -0.0057216967 0.03778557
000220 10 f1 24 be 73 3c 01 be f8 9d 70 3e 46 94 94 3d
       -0.16107583 -0.12620716 0.2349776 0.072548434
000230 df 8f b9 be 44 91 bf bd 86 4f fa 3a 47 37 99 be
       -0.36242577 -0.09353879 0.0019097186 -0.29924986
000240 9f 55 e3 bd dd 4c 8e 3e 1c d4 3e 3e df 44 b1 be
       -0.11100315 0.27793017 0.18635601 -0.34622857
000250 e7 b7 90 bd d6 e0 e4 3d a5 2e 5a 3d ee d4 b8 3d
       -0.070663266 0.111756966 0.05326714 0.09024988
000260 50 28 86 3c 2a c2 09 be 88 e4 86 bc 13 3d 0a 3e
       0.016376644 -0.13452974 -0.016466394 0.1349986
000270 2b 81 84 be 2d 2c ab be f5 87 61 be ea cd 2f 3e
       -0.25879797 -0.3343214 -0.2202452 0.17168394
000280 a3 3b e1 bd 3b 02 41 3e 49 a9 a1 bd a2 8f 8a 3e
       -0.10997703 0.18848507 -0.07893617 0.27062708
000290 03 f4 c4 3c 02 73 e6 3d cd e1 2f be 00 c2 7b be
       0.024042135 0.11252405 -0.1717598 -0.24585724
0002a0 1b b4 15 be 9e 5c af 3d 96 9e 57 be 7c e9 01 3e
       -0.14619486 0.08562587 -0.2105659 0.12686723
0002b0 24 5c 5d be cb 4f 9d be bd e1 95 be 7e b2 55 be
       -0.2161718 -0.3072494 -0.29273787 -0.2086887
0002c0 57 cf 92 bd 76 ab 07 be 5b dd b8 3e 7e b5 87 be
       -0.07168453 -0.13249001 0.3610638 -0.26505655
0002d0 df 22 75 3e 18 17 45 be ea 87 89 be 20 c4 f9 bd
       0.23939084 -0.19247091 -0.26861507 -0.12195611
0002e0 5c f1 ff 3c fc 28 09 3e 1d 71 0a be 18 20 99 bd
       0.031243019 0.1339454 -0.13519712 -0.074768245
0002f0 02 d6 06 be 52 e2 7b 3b a6 a0 2b be e1 76 68 be
       -0.13167575 0.0038434458 -0.16760501 -0.22701599
000300 f4 7c 41 3d 93 40 38 be 81 75 8e bb 7b 5e ba 3c
       0.047238305 -0.17993383 -0.0043475037 0.02275013
000310 4a 32 ac be d6 7d 4c be 05 f9 bb 3d c0 cb 2e 3d
       -0.33632118 -0.19969878 0.09178356 0.04267478
000320 17 65 5b be a7 d9 d1 3c b9 ff 2c bd 19 f5 93 be
       -0.21425281 0.02561648 -0.042236064 -0.28897932
000330 1e 55 cb 3c 76 8b f4 bd 66 dd 9f be 99 14 98 3e
       0.02482086 -0.119406626 -0.312236 0.29703215
000340 45 77 42 be bb 2f 80 3e 3d d7 22 be 73 eb 6d bd
       -0.1899081 0.25036415 -0.1590242 -0.05808587
000350 63 6c 5e be 4c 7e 8c bd f0 30 06 3e bd ae 12 3d
       -0.21721034 -0.06860027 0.13104606 0.035811175
000360 3d 4d 8c 3c a3 21 b5 3d 94 49 ba 3e bc 52 89 3d
       0.017126674 0.08844306 0.3638426 0.067052335
000370 27 57 d0 3d 5d c1 b0 3d ac 4c 06 3e f1 77 95 3d
       0.10172873 0.08630631 0.13115185 0.07298268
000380 ea 96 88 3e 42 df 95 3d 47 85 70 be c1 74 9d 3e
       0.26677638 0.07317974 -0.23488341 0.3075314
000390 e3 b9 a2 be 62 f8 87 3d 8b 2c ec 3c b9 2d 7e 3e
       -0.31782445 0.06639172 0.028829833 0.2482213
0003a0 e5 93 fa 3d c6 e0 9f bd 9c 0b bc 3c ef 7a 9e bd
       0.1223524 -0.07806544 0.022954755 -0.077382915
0003b0 46 fc e3 bd 95 7f f6 bd 75 a3 c0 bb f1 13 ac be
       -0.11132102 -0.12036053 -0.0058788606 -0.33608964
0003c0 37 e2 15 be e6 88 63 be 66 d2 87 be e2 47 ef 3d
       -0.14637075 -0.22220191 -0.2652771 0.116836324
0003d0 e8 65 53 be 3b 36 dc bd f9 d8 ed bc 1b c3 53 3d
       -0.20644343 -0.10752531 -0.029034125 0.05169974
0003e0 44 9f 33 bc d3 eb 3e be 28 c0 53 3d f9 42 6a be
       -0.010963265 -0.18644647 0.051696926 -0.2287711
0003f0 01 5b b6 be 68 52 b3 3d 12 26 39 3e cf b3 84 bd
       -0.35616305 0.08755952 0.18080929 -0.06479608

layers.1.mixer.dt_proj.weight f4 [12, 1]
000000 40 4f 88 bf 98 6e 74 3f 2c 3f 41 bf 16 1f c5 3d
       -1.0649185 0.9548125 -0.7548702 0.0962507
000010 58 fe 08 3f 0e 38 5e 3f d4 09 da bd 88 42 04 bf
       0.535131 0.8680428 -0.10646406 -0.5166402
000020 71 c4 6b 3f c9 43 92 bd 22 61 84 be 0e 35 6c 3d
       0.9209662 -0.07141835 -0.25855356 0.057667784

layers.1.mixer.dt_proj.bias f4 [12]
000000 c3 dc 9c c0 bf 86 b7 c0 27 c9 98 c0 70 e4 a0 c0
       -4.9019485 -5.7351985 -4.7745547 -5.0278854
000010 71 03 d0 c0 61 4c 64 c0 3f ab 18 c0 9c df 94 c0
       -6.50042 -3.5671618 -2.385452 -4.652296
000020 bf e8 0b c0 08 73 ac c0 16 d0 6f c0 44 0e 1d c0
       -2.1860807 -5.389042 -3.7470756 -2.4539957

layers.1.mixer.out_proj.weight f4 [6, 12]
000000 d6 1f af 3d de 66 28 be 43 33 93 3c e7 a3 78 3e
       0.08550994 -0.1644549 0.01796878 0.24281274
000010 e0 78 d5 b9 3e 20 cb 3d 4f 38 78 be 35 57 23 3e
       -0.00040716585 0.09918259 -0.2424023 0.15951236
000020 5b 8e a0 3d 57 d9 5f be 78 e9 1d 3d 0d d3 e7 bd
       0.07839652 -0.21860252 0.03855273 -0.113195516
000030 41 da b2 bd ff ad 48 be 79 63 ad 3d d4 b9 40 be
       -0.08733035 -0.19597624 0.084662385 -0.18820888
000040 9d 05 73 3e 60 ed 95 be c7 0b a7 be 45 3d e6 bc
       0.2373261 -0.29282665 -0.32626173 -0.028105387
000050 32 14 b5 3e bc 8a 0c be b7 8f 37 3e 12 4d 39 be
       0.3536697 -0.13724798 0.17925917 -0.18095806
000060 60 b5 6d be d4 6a 3d 3e 80 ac 3e 3d e0 e5 71 3e
       -0.2321372 0.18497783 0.046551228 0.23622847
000070 48 8e 29 3e 2d eb 9e bd 07 94 7c bd e1 d2 2a 3d
       0.16558182 -0.077597 -0.061664607 0.041705016
000080 d8 5c b2 be 9f 65 85 3e a0 9b 90 be 20 d2 87 3d
       -0.3483646 0.26054093 -0.28243732 0.06631875
000090 e0 0f b7 bd 24 73 99 be 52 c9 5f bd 50 ac 48 3e
       -0.08938575 -0.29970658 -0.054635353 0.19596982
0000a0 aa 6e 6c 3d 4a 61 0e be 1a 4e a0 bd 15 b5 2b 3e
       0.057722725 -0.139043 -0.07827397 0.16768296
0000b0 6c 9e b2 be 1d 8a b0 3d b1 de 09 be f6 4d 89 3e
       -0.3488649 0.08620093 -0.13463856 0.26817292
0000c0 f0 4f be bd de a2 af be 52 1a eb bc 2a d4 dd bc
       -0.092925906 -0.34303945 -0.028699074 -0.027078707
0000d0 6e 26 1c be ea 65 43 3e 62 ac 26 3c bc 15 ab 3e
       -0.15249035 0.19081846 0.010172935 0.3341502
0000e0 e4 14 e2 bd d2 44 50 3e f7 67 7e bd c5 e3 12 3e
       -0.11039141 0.20338753 -0.062110867 0.143447
0000f0 c0 a5 66 3d cc d8 54 3e a5 11 9b 3e e0 44 99 bd
       0.056310415 0.20785826 0.302869 -0.0748384
000100 14 9f 36 3e c5 06 f5 3d 64 9b 69 3d a9 b4 11 be
       0.17834121 0.11964182 0.057032958 -0.14229073
000110 5e 05 d7 bc 59 e8 99 3d dd 6d ed 3d f7 7c cc bd
       -0.026247676 0.0751502 0.115932204 -0.09984773

layers.1.norm.weight f4 [6]
000000 4b 6e 81 3f 47 d3 6b 3f 0a 6b 87 3f c8 0d 89 3f
       1.0111784 0.9211926 1.0579541 1.0707331
000010 b0 6f 71 3f 82 a2 85 3f
       0.94311047 1.0440218

layers.2.mixer.A_log f4 [12, 16]
000000 62 b4 2d bd 7c 79 2d 3f b4 8f 95 3f 62 f0 b7 3f
       -0.042408355 0.67763495 1.168448 1.4370234
000010 5d df c8 3f 89 7d dd 3f 4b b2 fc 3f 88 4b 03 40
       1.5693165 1.7303935 1.9741911 2.051485
000020 1c 80 0e 40 bb a8 16 40 f0 2d 1e 40 92 f4 1f 40
       2.2265692 2.3540485 2.4715538 2.4993024
000030 01 17 28 40 e0 4c 2b 40 a0 ff 2f 40 d8 ee 2c 40
       2.626404 2.676567 2.749977 2.7020779
000040 80 67 87 bd 53 b9 2f 3f e1 19 96 3f c2 69 b9 3f
       -0.06611538 0.6864216 1.1726648 1.44854
000050 cf 4d c8 3f 13 6f ee 3f 88 36 01 40 9c d1 00 40
       1.5648745 1.8627647 2.0189533 2.0127935
000060 da 25 0d 40 41 5e 17 40 9a e4 1d 40 8c f9 21 40
       2.2054353 2.3651278 2.4670777 2.5308561
000070 7a de 28 40 13 a0 2d 40 69 c5 31 40 c6 f4 2c 40
       2.638579 2.7128952 2.777674 2.7024398
000080 e7 b8 44 3d 8b b2 36 3f e9 41 88 3f 4c 53 ad 3f
       0.0480279 0.71366185 1.0645114 1.3541045
000090 86 bb d0 3f ae af e7 3f aa e3 f5 3f 84 e7 06 40
       1.6307228 1.8100488 1.9210103 2.1078806
0000a0 2e b1 08 40 83 02 13 40 70 aa 17 40 68 cb 1c 40
       2.1358142 2.2970283 2.3697777 2.449915
0000b0 53 8a 21 40 a1 7f 25 40 e2 c9 29 40 20 fb 33 40
       2.5240676 2.5859149 2.652947 2.8122025
0000c0 0c b3 89 bd 12 74 26 3f 0a 42 96 3f 1c 21 ba 3f
       -0.067236036 0.6502086 1.1738904 1.4541354
0000d0 14 a5 c8 3f 5a 1f e4 3f eb 43 01 40 a8 c0 00 40
       1.5675378 1.7822068 2.0197704 2.0117588
0000e0 e6 9c 10 40 1e 84 17 40 3d 3e 1e 40 86 e8 21 40
       2.2595763 2.3674388 2.4725487 2.529817
0000f0 10 ed 28 40 86 96 2d 40 b6 d7 31 40 55 d0 2c 40
       2.6394691 2.7123122 2.778791 2.7002156
000100 b3 54 85 bd 3b ef 3f 3f 59 9f 87 3f bb 62 b2 3f
       -0.06510296 0.7497441 1.0595504 1.393638
000110 34 c0 d4 3f fc 4c ed 3f 8e e3 00 40 c0 07 01 40
       1.6621156 1.8539119 2.0138888 2.016098
000120 c1 eb 0b 40 72 df 17 40 13 15 16 40 5f 85 21 40
       2.1862643 2.373013 2.3450363 2.5237653
000130 a1 af 25 40 81 4b 2d 40 6e a2 31 40 bc 47 30 40
       2.5888445 2.7077334 2.775539 2.7543783
000140 6a 0f cb bb c2 ff 33 3f 81 a4 8f 3f b1 34 b2 3f
       -0.006196906 0.7031213 1.1222078 1.392233
000150 fa f9 ce 3f 5e b3 e7 3f 65 1d fb 3f b3 c1 04 40
       1.6170037 1.8101614 1.9618345 2.0743225
000160 e6 95 0e 40 d9 3f 16 40 e2 05 19 40 fb 11 1e 40
       2.227899 2.347647 2.390984 2.4698474
000170 c0 4b 25 40 5f 16 2a 40 f7 03 2e 40 6c f2 30 40
       2.5827484 2.6576154 2.718992 2.7647963
000180 9c c9 10 3d d3 4d 39 3f 18 0c 87 3f 7f 20 ac 3f
       0.03534852 0.72384375 1.0550566 1.3447417
000190 52 9b cf 3f 99 2b e0 3f a4 f2 f3 3f 81 31 07 40
       1.6219275 1.7513305 1.9058423 2.1123965
0001a0 6f 77 09 40 8e 38 10 40 27 d7 16 40 8c 76 1c 40
       2.1479146 2.2534518 2.3568819 2.4447355
0001b0 dd 77 21 40 18 44 26 40 15 d6 2a 40 05 b5 33 40
       2.5229409 2.597906 2.6693165 2.8079236
0001c0 cf 2b 68 bd 00 1d 3a 3f 1b 58 96 3f 9d 8d b9 3f
       -0.056682404 0.727005 1.1745638 1.4496342
0001d0 f8 1a c6 3f c6 69 ed 3f c8 03 00 40 df 42 04 40
       1.547698 1.8547904 2.0002308 2.0665815
0001e0 55 2e 0c 40 0c 3b 16 40 4e f9 1d 40 e5 f5 21 40
       2.190328 2.347354 2.4683414 2.5306332
0001f0 56 0e 29 40 c7 1a 2d 40 18 1c 31 40 28 b9 2d 40
       2.6415 2.7047594 2.7673397 2.714426
000200 da 47 03 3d 6a 82 33 3f 33 8a 87 3f 95 39 ad 3f
       0.032050945 0.7012087 1.058905 1.3533198
000210 c4 88 d0 3f e3 4c e1 3f 38 a2 f3 3f 5b 24 07 40
       1.6291738 1.7601589 1.903388 2.111594
000220 8a f3 0c 40 c7 a4 10 40 63 e2 16 40 74 97 1c 40
       2.2023644 2.2600572 2.3575675 2.446744
000230 d9 51 21 40 aa 0f 26 40 c5 b6 2a 40 62 df 33 40
       2.5206206 2.594706 2.6674054 2.8105092
000240 3c 9a fa 3c ac 9a 32 3f 4c 27 89 3f ba f4 ad 3f
       0.030591123 0.6976726 1.0715117 1.359031
000250 73 88 cf 3f e6 2f e1 3f af ae f3 3f 49 14 07 40
       1.6213516 1.7592742 1.9037684 2.110613
000260 9a 98 0c 40 52 98 10 40 31 30 19 40 87 a6 1c 40
       2.196814 2.259297 2.3935664 2.447664
000270 70 6e 21 40 15 23 26 40 64 b7 2a 40 72 cf 33 40
       2.5223656 2.5958912 2.6674433 2.8095365
000280 97 ee cd 3c 18 20 31 3f 3d 6e 90 3f 2b c8 b1 3f
       0.025138183 0.69189596 1.1283642 1.3889211
000290 04 05 ca 3f a7 fe e1 3f 16 cf f5 3f f9 f5 05 40
       1.5782781 1.7655839 1.9203823 2.093138
0002a0 65 78 0d 40 49 b2 13 40 f3 7f 1b 40 7b 99 1a 40
       2.2104733 2.3077567 2.4296844 2.4156177
0002b0 46 9c 24 40 c8 ac 28 40 bb a4 2b 40 8e b3 31 40
       2.5720382 2.6355457 2.6819293 2.7765841
0002c0 13 e6 33 bd 8b 47 32 3f 6c f7 8e 3f ff 7a b6 3f
       -0.043920588 0.69640416 1.1169257 1.4256285
0002d0 b5 96 cd 3f dc a2 eb 3f 9f 3d 00 40 37 0d 02 40
       1.6061617 1.8409076 2.003761 2.0320566
0002e0 26 f8 0c 40 a3 2a 17 40 f6 71 16 40 4c bd 21 40
       2.2026458 2.3619773 2.3507056 2.5271788
0002f0 3b 2d 28 40 88 ec 2c 40 38 c6 30 40 df ff 2d 40
       2.6277606 2.7019367 2.7620983 2.7187421

layers.2.mixer.D f4 [12]
000000 a9 b1 89 3f 91 3f 89 3f d7 8b 77 3f f4 8b 89 3f
       1.0757343 1.0722524 0.96697754 1.0745835
000010 e8 05 75 3f 04 83 81 3f e7 05 76 3f 5d 8d 82 3f
       0.9571214 1.0118108 0.96102756 1.0199391
000020 09 3c 75 3f fe df 76 3f 3d 05 81 3f d1 d4 7b 3f
       0.9579473 0.96435535 1.0079724 0.9837161

layers.2.mixer.in_proj.weight f4 [24, 6]
000000 7a a6 03 3e 85 a5 3b be e3 ea f0 bd f2 2b 60 3e
       0.12856475 -0.1832486 -0.11763551 0.21891764
000010 37 8a 33 bd c7 8f cf bd 09 3c bf 3e 76 8a 50 3e
       -0.043832984 -0.10134845 0.3735049 0.20365319
000020 ac 36 a1 bd cd 8a 75 3e 8b b3 2b be 73 91 a7 be
       -0.07871756 0.2397873 -0.16767709 -0.32728156
000030 35 1e 86 be 86 83 94 3e 76 72 5b bc 6d 47 93 3e
       -0.2619492 0.29006594 -0.013393989 0.2876543
000040 8a cc 94 be 50 ca bb 3e 95 d9 c6 bd cd 7c e0 bd
       -0.290623 0.3667779 -0.09709469 -0.10961304
000050 4c 54 00 3e 06 ba 46 be c9 f5 b7 bc 29 f4 b4 be
       0.12532157 -0.194069 -0.022456067 -0.3534253
000060 db 9c d9 3d 0f 67 04 3e 6f 77 e1 3d 32 d0 c2 3e
       0.10625621 0.12929939 0.11009108 0.38049465
000070 25 ab f3 bc 62 0d 9c be 15 9d 2e 3e 25 9c 82 bd
       -0.029744694 -0.3047896 0.1705211 -0.063774385
000080 e8 8a 1f 3c 4b 92 96 be b1 5c 08 be 1b c7 a8 be
       0.009737708 -0.29408488 -0.13316609 -0.32964405
000090 3f 92 4b 3e 25 a1 b7 be 2b 8e a3 3e 21 cb 7b 3d
       0.19880007 -0.3586513 0.31944403 0.061473016
0000a0 a1 8a 84 bd 59 62 d4 3e e4 33 af bc 52 40 6f be
       -0.06471754 0.41481283 -0.021387048 -0.2336438
0000b0 23 a2 3a 3d a6 a5 16 bd 6d 81 7e 3e 48 7e c5 be
       0.045564782 -0.03677907 0.2485406 -0.38572907
0000c0 7d fe 63 3e c0 48 7d be a3 33 10 bc 82 d1 db 3e
       0.22265048 -0.24734783 -0.008801374 0.4293328
0000d0 23 cb 1b be 71 68 9f 3e 94 e2 b7 3e 54 b9 b1 3e
       -0.1521421 0.3113437 0.35915053 0.34711707
0000e0 83 3e 96 be e6 56 aa 3d 55 d9 21 3e f6 87 af be
       -0.29344568 0.08317356 0.15805562 -0.34283417
0000f0 92 9e 3a 3d b8 de a8 bc 7c fe b6 be 60 97 f0 3c
       0.04556138 -0.020614013 -0.3574103 0.029369056
000100 c9 38 63 be ca 65 96 3e 47 df 73 be 2c af 9b be
       -0.2218963 0.29374534 -0.23815642 -0.30407083
000110 65 47 94 be 99 c3 94 be e4 c2 e2 3d ba 1a a8 be
       -0.2896072 -0.2905548 0.11072329 -0.3283289
000120 33 fd 0b be 83 94 ae be 04 c2 31 3e b7 73 59 3d
       -0.13670807 -0.3409768 0.17359167 0.05308887
000130 46 42 f8 bd ef b2 c3 be 42 29 f8 3d 99 b5 dd ba
       -0.12122016 -0.38222453 0.12117244 -0.0016915082
000140 4e 26 2a be 23 59 2d bd 7a 74 3c bd aa 58 a6 3e
       -0.16616175 -0.042321336 -0.04600952 0.3248952
000150 ec be 43 3e 7d ab 92 be 57 3c 01 3d 35 78 35 3e
       0.191158 -0.2864646 0.031551685 0.17721637
000160 60 24 84 be 5a 62 75 3d 12 97 8d bd f0 ee 81 be
       -0.25809002 0.05990825 -0.0691358 -0.25377607
000170 82 6b f9 3d a1 64 a2 be 5d 9e 95 be 7c 38 aa 3e
       0.121787086 -0.317174 -0.29222384 0.3324622
000180 38 94 40 3e c8 24 5f 3e f2 a1 92 3d dc df 92 be
       0.18806541 0.21791375 0.07159795 -0.28686416
000190 f7 69 6b 3c 48 1b b8 be 40 3f 8a 3e a0 01 59 be
       0.014368526 -0.35958314 0.2700138 -0.21192026
0001a0 b8 43 f4 bc 03 51 c4 bd 6c 73 c4 bd 0c 00 b9 be
       -0.029817447 -0.09585764 -0.095923275 -0.36132848
0001b0 8d 70 78 be 10 93 84 be 8d cf 8a 3c ef 62 a3 be
       -0.24261685 -0.2589345 0.016944671 -0.31911418
0001c0 83 88 c3 3e 14 c3 73 3e 88 48 a5 be 11 23 21 be
       0.38190088 0.23804885 -0.322819 -0.15736033
0001d0 e8 f7 8d 3e c3 bf 73 be 85 33 b7 bb 63 27 15 be
       0.277282 -0.2380362 -0.0055908584 -0.14565806
0001e0 88 60 57 bc 72 33 b8 3e cd 29 f4 bd 62 b3 7e 3e
       -0.013145573 0.3597675 -0.11922035 0.24873117
0001f0 e1 9f 47 be ad 06 75 be 47 3f 5e be 5a 8f 73 be
       -0.19494583 -0.23928328 -0.21703826 -0.23785153
000200 5d 29 b1 3d e2 54 9c 3e 0c 29 ff bc d4 aa 12 be
       0.086504675 0.3053351 -0.031147502 -0.14322978
000210 b4 64 55 be 29 72 a2 bd 68 83 0a be 8f 63 79 be
       -0.20839196 -0.079319306 -0.1352669 -0.24354385
000220 73 d9 ba 3d 0f ce a3 3e 15 55 c4 3d a9 31 8d 3e
       0.091235064 0.31993148 0.095865406 0.2757695
000230 f7 a2 b4 be c5 6d 8a 3e dd 86 9b be 27 02 f2 3d
       -0.35280582 0.27036873 -0.3037633 0.11816817
